net/LAnet.onnx (onnx, 823240 bytes, 128 tensors)

conv0.conv.weight f4 [16, 2, 3, 3]
-0.1453153 -0.041706666 -0.09652142 -0.13299151 0.15119153 0.10075519 0.1366856 -0.050560426
0.20273325 0.072469965 -0.107718185 -0.14961578 0.19796614 -0.09972886 -0.015000372 -0.14762257
-0.1490813 -0.009116251 -0.15371467 -0.025706684 0.012475214 -0.16512711 -0.0127919335 -0.064170934
-0.14608435 -0.17263138 -0.07951908 0.21634284 -0.21730188 0.120851316 -0.2104064 0.110352956
0.05266367 -0.052418824 0.0418938 0.16230266 0.04667811 0.004066244 -0.04796466 0.054109868
-0.10781333 0.16901886 -0.20965189 -0.09874181 -0.06684181 0.19784307 0.21757878 -0.09882374
-0.11166572 0.023503331 0.011374957 -0.18760288 0.11043854 -0.1072199 0.14685288 0.08985638
0.21143098 -0.06851704 -0.22050233 0.013356533 -0.06842679 0.2117986 0.13567568 0.11667029
0.12826146 0.048315547 0.12948984 -0.085207246 -0.22794431 -0.013435432 0.20661896 -0.23256943
0.046843722 -0.15747574 -0.21338129 0.21671905 -0.05115585 0.23048696 0.067201294 -0.07446955
0.08897815 0.08623152 -0.118110105 0.2225212 -0.08785735 0.05554727 -0.19617459 0.054124534
-0.01139707 0.23088987 0.11172248 -0.009053958 0.10835615 -0.21440832 -0.2268832 0.19996025
-0.03149575 0.05169693 0.14854376 0.05811848 0.14517567 0.05800255 -0.091919355 -0.15968263
-0.17634675 -0.028538503 -0.17118791 -0.09953625 -0.12339777 0.22047256 -0.14520185 0.12295506
-0.10573624 0.07478621 0.16499485 0.14426248 -0.17163469 -0.16849867 0.116074696 -0.006654931
-0.05323369 0.098358296 -0.20126006 0.14464487 -0.123767056 0.07853739 -0.024563324 -0.016611282
-0.08355798 -0.1630728 0.049318388 0.15858053 0.21108659 -0.09414198 -0.18726781 -0.11752325
-0.03398528 -0.004901931 0.03403021 -0.055981636 -0.16723664 0.13222809 -0.19215138 -0.113374464
0.008357074 0.06613557 -0.005222669 0.16685924 -0.04514248 0.15998565 -0.229585 0.0745104
0.15457913 0.09058762 -0.18491825 -0.18372682 0.023122633 0.16521342 -0.13419987 -0.21042891
-0.053331077 0.17171185 0.21609235 -0.22983463 -0.17011696 0.04117306 0.051224604 0.043493524
-0.12462084 -0.024167987 -0.16683105 0.18811347 0.07372445 0.10870979 0.0909234 -0.17498419
0.12101186 -0.13183369 0.18631712 0.06833494 -0.21347994 0.09799707 -0.09978646 0.030112294
-0.06008834 0.19718184 -0.014588541 -0.04419454 0.024524407 -0.020693457 0.016381525 0.22256677
0.034360807 -0.2258393 -0.21202649 -0.21425483 -0.08516619 -0.07080665 0.16728362 0.114902005
0.033981487 0.036739014 0.080988176 -0.11820994 0.12504601 0.08614639 0.18800087 0.08649809
-0.20584369 0.11577383 0.22363958 -0.079711154 0.103878185 0.20538212 -0.03110297 0.07079044
0.0009857586 -0.12887312 -0.22125092 0.16405818 0.17917384 -0.0275748 -0.009262922 0.041371346
0.09645565 0.12474214 0.07641797 0.06599862 0.20812598 -0.15943249 -0.18846713 0.1231065
-0.1652486 0.20302957 -0.16377974 -0.08793662 0.21838969 0.08895919 -0.21709937 -0.09466851
-0.053860918 0.08149981 0.23229964 0.14928588 0.08942867 -0.22720234 0.09865369 0.038472515
0.18519081 0.04575046 -0.09720364 -0.16310748 0.17458494 -0.22641253 -0.08334177 -0.23268995
00000000: 89cd 14be 9cd4 2abd 06ad c5bd ed2e 08be
00000010: f4d1 1a3e bd58 ce3d 4ff7 0b3e 7318 4fbd
00000020: 4e99 4f3e 226b 943d 5a9b dcbd e134 19be
00000030: a3b7 4a3e a53e ccbd 1fc4 75bc 5f2a 17be
00000040: c5a8 18be 545c 15bc 6167 1dbe d396 d2bc
00000050: d764 4c3c 1517 29be 4295 51bc 0d6c 83bd
00000060: 2397 15be 48c6 30be e6da a2bd fa88 5d3e
00000070: 6284 5ebe e580 f73d c674 57be bb00 e23d
00000080: dcb5 573d 1fb5 56bd d598 2b3d ab32 263e
00000090: 8c31 3f3d 203e 853b 9776 44bd 4fa2 5d3d
000000a0: 3ccd dcbd 4813 2d3e fcae 56be 2539 cabd
000000b0: 5ce4 88bd 6097 4a3e f9cc 5e3e 1a64 cabd
000000c0: ffb0 e4bd 0f8a c03c 075e 3a3c f81a 40be
000000d0: 9a2d e23d 1b96 dbbd 9a60 163e 9f06 b83d
000000e0: 5d81 583e a952 8cbd 5dcb 61be 5cd5 5a3c
000000f0: 5823 8cbd bbe1 583e 91ee 0a3e d5f0 ee3d
00000100: f956 033e 86e6 453d fc98 043e 2381 aebd
00000110: 3c6a 69be 4920 5cbc ec93 533e ae26 6ebe
00000120: 34df 3f3d 5241 21be a080 5abe 99eb 5d3e
00000130: cc88 51bd c604 6c3e d5a0 893d 7e83 98bd
00000140: 2d3a b63d 279a b03d b6e3 f1bd 99dc 633e
00000150: 8eee b3bd 8985 633d fee1 48be b0b1 5d3d
00000160: c7ba 3abc 656e 6c3e c1ce e43d 0d57 14bc
00000170: d4e9 dd3d db8d 5bbe 1254 68be 61c2 4c3e
00000180: b001 01bd 29c0 533d db1b 183e a50d 6e3d
00000190: eea8 143e 1594 6d3d 3740 bcbd d883 23be
000001a0: 3e94 34be 94c9 e9bc e24b 2fbe a9d9 cbbd
000001b0: f8b7 fcbd 8fc3 613e cbaf 14be ddcf fb3d
000001c0: 3e8c d8bd 8329 993d 69f4 283e 8bb9 133e
000001d0: 01c1 2fbe ea8a 2cbe 92b8 ed3d 9c11 dabb
000001e0: 920b 5abd 1370 c93d 1e17 4ebe c91d 143e
000001f0: 9579 fdbd 36d8 a03d 0639 c9bc 6214 88bc
00000200: 7220 abbd 8efc 26be 1402 4a3d ef62 223e
00000210: 1527 583e 83cd c0bd 22c3 3fbe 08b0 f0bd
00000220: 2634 0bbd 61a0 a0bb 4363 0b3d 004d 65bd
00000230: 1540 2bbe cd66 073e 55c3 44be df30 e8bd
00000240: 1cec 083c 1672 873d ec22 abbb 26dd 2a3e
00000250: 52e7 38bd 47d3 233e 5518 6bbe e998 983d
00000260: fe49 1e3e 0186 b93d 365b 3dbe e222 3cbe
00000270: ad6b bd3c b52d 293e b16b 09be ad7a 57be
00000280: b071 5abd 3bd5 2f3e 5047 5d3e c559 6bbe
00000290: 2433 2ebe 15a5 283d e4d0 513d 4426 323d
000002a0: 3639 ffbd f1fb c5bc c2d5 2abe d1a0 403e
000002b0: d8fc 963d 3da3 de3d 0c36 ba3d 0e2f 33be
000002c0: 11d5 f73d 69ff 06be eac9 3e3e 30f3 8b3d
000002d0: 7c9a 5abe b0b2 c83d d85c ccbd 0fae f63c
000002e0: 311f 76bd 09ea 493e c704 6fbc 5505 35bd
000002f0: 69e7 c83c 5385 a9bc 8c32 863c 8be8 633e
00000300: ebbd 0c3d 6b42 67be 791d 59be 9e65 5bbe
00000310: 9d6b aebd 1403 91bd 664c 2b3e be51 eb3d
00000320: 2c30 0b3d a67b 163d 21dd a53d 0e18 f2bd
00000330: 100c 003e 856d b03d 4d83 403e e925 b13d
00000340: b0c8 52be d41a ed3d c601 653e 9a3f a3bd
00000350: 16be d43d b14f 523e a8cb febc 94fa 903d
00000360: 9234 813a 51f7 03be 9a8f 62be defe 273e
00000370: 5979 373e 8ce4 e1bc 83c3 17bc 0075 293d
00000380: 8a8a c53d cf78 ff3d 0681 9c3d 492a 873d
00000390: fa1e 553e 4542 23be 87fd 40be 431f fc3d
000003a0: ee36 29be fce6 4f3e e0b5 27be 1d18 b4bd
000003b0: 8ca1 5f3e 3c30 b63d 4c4f 5ebe 90e1 c1bd
000003c0: 449d 5cbd 5fe9 a63d f5df 6d3e 66de 183e
000003d0: 6126 b73d bba7 68be f20a ca3d 5b95 1d3d
000003e0: a9a2 3d3e d664 3b3d b412 c7bd a605 27be
000003f0: 65c6 323e b0d8 67be 17af aabd 4646 6ebe

conv0.conv.bias f4 [16]
0.17686121 -0.1569998 0.094624735 0.20610191 0.13858783 0.20442739 -0.031038681 0.031838067
-0.22997347 0.13516362 0.16065145 0.151389 -0.036090206 0.09082711 -0.13887963 0.05463409
00000000: 1b1b 353e 8ec4 20be 9dca c13d 610c 533e
00000010: f8e9 0d3e 6a55 513e d544 febc a268 023d
00000020: 2a7e 6bbe 5568 0a3e d081 243e b805 1b3e
00000030: 53d3 13bd 9003 ba3d 7636 0ebe ffc7 5f3d

enc1.0.conv1.depthwise.weight f4 [16, 1, 5, 5]
-0.11354106 0.14047885 0.100665525 -0.097855926 0.044045784 -0.12751499 0.077497534 -0.176037
0.10818875 0.10200071 0.075665735 0.052319337 0.025799895 0.028934479 -0.13004084 -0.15018551
-0.10042091 -0.06966088 0.032390025 0.065681 -0.15231006 -0.13597985 -0.056613352 0.061695814
-0.17971447 -0.16929865 0.08840328 -0.1378769 0.041281678 -0.17463179 0.03646293 0.18415356
-0.17356086 -0.108367994 -0.10629382 0.071628354 0.06337195 -0.19751489 -0.07996815 0.10340243
-0.017452026 0.078274965 -0.11805828 0.10845771 0.047002055 0.03343749 -0.026402354 0.050311066
-0.057737973 -0.05093677 0.19233303 -0.058992483 -0.059522867 -0.15787652 -0.09636321 0.13836117
-0.15589221 0.15400445 -0.18195882 -0.106275156 0.0644898 -0.08625092 0.09105978 0.069422245
-0.012453556 0.08064812 -0.13068818 0.16483913 -0.069270566 0.17670007 -0.1266777 0.17312093
-0.14773989 0.06784325 -0.19658306 0.1571461 -0.10155993 -0.16933072 -0.08306646 -0.078331165
0.13542838 0.07996295 -0.15611966 -0.060448267 -0.16133618 0.1570951 0.1863731 0.0803005
0.19110505 0.13416412 0.12194743 -0.08233249 0.05525863 -0.042602636 0.19938622 0.177032
-0.19252622 0.015402627 0.033998158 0.020489598 0.19268432 0.13946651 0.078300476 -0.13203119
-0.17636202 -0.17487696 0.046756294 0.10605874 -0.14273427 0.15152673 0.062135436 -0.13452236
-0.1576697 -0.080981754 -0.13897097 0.115828566 -0.024279738 -0.11791134 0.11660719 0.18693876
0.09716716 -0.09547033 0.06310465 -0.10994794 -0.033425856 -0.024344398 -0.07507546 0.025375843
0.050573494 -0.06774729 -0.12348034 -0.072835185 0.11564701 -0.06508749 -0.123981714 -0.14292832
-0.03969405 0.079870515 -0.071812056 -0.083250955 0.030859232 -0.0487041 0.028732896 0.19415203
-0.14508699 0.14755718 -0.19633758 -0.102465324 0.19464143 -0.07471559 0.12333057 0.030560875
-0.19345164 -0.11943205 0.10109823 0.14738028 -0.06104107 -0.11919377 0.088308096 -0.036930133
0.16047244 -0.010520888 -0.10739966 0.101606205 0.17000933 -0.095119335 0.04485519 -0.024834443
-0.13172992 0.12807536 -0.14433129 -0.019306136 -0.07045384 -0.002639842 0.08309307 -0.17310221
-0.15835185 0.08755308 0.07182634 0.14227822 0.052948333 0.053577017 0.0010087251 -0.08777535
-0.110536315 0.17109409 -0.016332984 0.09450336 0.00877502 -0.10922575 0.16570811 -0.048359465
0.005611515 0.020267773 0.14530782 -0.1844406 -0.13257639 0.1707334 0.14180505 -0.19420043
-0.17191707 -0.06261428 0.030082107 -0.06213174 -0.14527038 0.19335972 -0.039594866 -0.19751334
-0.12097614 -0.028320028 0.084962726 -0.056366492 -0.018242765 0.11266263 0.18976124 0.18153496
-0.11474436 0.08909748 0.05318315 0.13893943 0.19656835 0.041352846 -0.14644228 -0.110608436
-0.1293075 -0.17193513 -0.19221471 0.051914573 -0.07090642 -0.19853695 0.104799226 -0.046788074
-0.042483546 0.06002579 -0.017564012 0.049038984 -0.19301207 -0.19743995 -0.06336303 0.08423958
-0.046416547 -0.123004295 0.07611866 -0.13300827 -0.07801898 0.020980453 0.18264364 0.04741776
-0.06644406 0.094391994 0.030357076 0.15658112 0.14672136 0.13508253 0.00014395714 0.09699907
00000000: 3788 e8bd b0d9 0f3e ba29 ce3d b068 c8bd
00000010: 5a69 343d 4a93 02be 07b7 9e3d 0b43 34be
00000020: 1092 dd3d c0e5 d03d a3f6 9a3d cd4c 563d
00000030: 4d5a d33c 0008 ed3c 6d29 05be 3bca 19be
00000040: 7aa9 cdbd 5daa 8ebd 67ab 043d c383 863d
00000050: 2bf7 1bbe 4d3e 0bbe 67e3 67bd c0b4 7c3d
00000060: 1207 38be a05c 2dbe c70c b53d 9a2f 0dbe
00000070: fa16 293d add2 32be 275a 153d c092 3c3e
00000080: f0b9 31be 0af0 ddbd 93b0 d9bd e3b1 923d
00000090: 27c9 813d 5841 4abe 57c6 a3bd a7c4 d33d
000000a0: 8df7 8ebc a04e a03d 8ac8 f1bd 131f de3d
000000b0: 3a85 403d c0f5 083d c049 d8bc fa12 4e3d
000000c0: a77e 6cbd 13a3 50bd f3f2 443e 1aa2 71bd
000000d0: 40ce 73bd 62aa 21be 135a c5bd 8dae 0d3e
000000e0: 35a2 1fbe 58b3 1d3e 6a53 3abe caa6 d9bd
000000f0: 3a13 843d 53a4 b0bd 8d7d ba3d 402d 8e3d
00000100: 000a 4cbc d72a a53d 1fd3 05be 97cb 283e
00000110: badd 8dbd ddf0 343e cdb7 01be 9d46 313e
00000120: 2049 17be 67f1 8a3d 124d 49be e8ea 203e
00000130: a7fe cfbd 0865 2dbe c01e aabd 176c a0bd
00000140: bdad 0a3e 9dc3 a33d d5dd 1fbe 9a98 77bd
00000150: 5035 25be 8add 203e 97d8 3e3e 9774 a43d
00000160: 0bb1 433e 5262 093e 93bf f93d f09d a8bd
00000170: e056 623d 1a80 2ebd e72b 4c3e e047 353e
00000180: 9825 45be 4d5b 7c3c a741 0b3d cdd9 a73c
00000190: 0a4f 453e 4fd0 0e3e 005c a03d 2f33 07be
000001a0: 3f98 34be f212 33be 8783 3f3d 5335 d93d
000001b0: ef28 12be d329 1b3e ba81 7e3d 3bc0 09be
000001c0: 2a74 21be c3d9 a5bd 684e 0ebe 8737 ed3d
000001d0: 4de6 c6bc 807b f1bd c0cf ee3d e06c 3f3e
000001e0: 93ff c63d f385 c3bd 033d 813d 632c e1bd
000001f0: 8de9 08bd e76d c7bc 2ac1 99bd 00e1 cf3c
00000200: 2726 4f3d 17bf 8abd 43e3 fcbd 9d2a 95bd
00000210: 57d8 ec3d 974c 85bd 20ea fdbd cd5b 12be
00000220: 3a96 22bd 2793 a33d 3312 93bd 7a7f aabd
00000230: 80cc fc3c f37d 47bd 4061 eb3c cacf 463e
00000240: af91 14be 3b19 173e b80c 49be 57d9 d1bd
00000250: 1550 473e 7d04 99bd bd94 fc3d cd5a fa3c
00000260: 3018 46be ca98 f4bd 970c cf3d dbea 163e
00000270: 3306 7abd dd1b f4bd e0da b43d 0d44 17bd
00000280: e352 243e cd5f 2cbc 5af4 dbbd ea16 d03d
00000290: ed16 2e3e edcd c2bd 13ba 373d 9a71 cbbc
000002a0: 35e4 06be 3026 033e 95cb 13be e727 9ebc
000002b0: 1a4a 90bd 3301 2dbb b32c aa3d b541 31be
000002c0: fd26 22be 074f b33d b019 933d 62b1 113e
000002d0: 5ae0 583d 9373 5b3d 3337 843a 90c3 b3bd
000002e0: dd60 e2bd 4a33 2f3e c0cc 85bc fa8a c13d
000002f0: 1ac5 0f3c c0b1 dfbd 63af 293e 9314 46bd
00000300: cde0 b73b 9a08 a63c 93cb 143e ffdd 3cbe
00000310: 1bc2 07be bdd4 2e3e 5835 113e 7adc 46be
00000320: 070b 30be ea3b 80bd c06e f63c da7d 7ebd
00000330: c2c1 14be 1700 463e 3a2e 22bd f040 4abe
00000340: 57c2 f7bd 67ff e7bc f000 ae3d 8de0 66bd
00000350: da71 95bc aabb e63d c550 423e 4de4 393e
00000360: 17ff eabd bd78 b63d 93d6 593d 2346 0e3e
00000370: 3749 493e 9a61 293d f7f4 15be ad86 e2bd
00000380: 2f69 04be c30f 30be efd3 44be 60a4 543d
00000390: 6337 91bd 454d 4bbe faa0 d63d daa4 3fbd
000003a0: 3a03 2ebd 9add 753d 67e2 8fbc 1add 483d
000003b0: f5a4 45be b32d 4abe 7ac4 81bd cd85 ac3d
000003c0: 471f 3ebd ade9 fbbd 1ae4 9b3d 5233 08be
000003d0: 6ac8 9fbd 33df ab3c ef06 3b3e 2039 423d
000003e0: d313 88bd 9750 c13d 67af f83c cd56 203e
000003f0: 203e 163e 1353 0a3e 33f3 1639 73a7 c63d

enc1.0.conv1.pointwise.weight f4 [4, 16, 1, 1]
0.04702574 0.08763617 0.035350442 0.20663157 -0.06851119 -0.15266958 0.21947417 -0.05663994
0.04267791 -0.09722075 0.12602809 0.18475917 -0.2256023 -0.11169782 0.21113497 0.1008414
-0.00828287 -0.09588167 0.18087444 0.08271122 0.12745556 0.06801808 0.06322828 -0.12421554
0.045408994 0.20413905 -0.025924206 0.23488122 -0.2205452 -0.22946766 0.0063357353 -0.0026231408
0.111127496 -0.15236357 -0.21717682 0.20753059 0.02076894 -0.21360442 0.0714708 -0.0009786487
0.09501395 0.2208117 -0.08104658 0.15059277 -0.10680255 -0.02395615 -0.1521256 -0.0849624
0.043042004 0.22225264 -0.075463295 -0.055027694 -0.100536644 -0.18687275 -0.22355607 -0.15399915
-0.09393495 -0.014563382 -0.21449363 -0.03946528 -0.18814245 -0.073502034 0.11044437 0.047604352
00000000: 109e 403d 987a b33d a0cb 103d 3a97 533e
00000010: 984f 8cbd 6a55 1cbe d6bd 603e 48ff 67bd
00000020: 08cf 2e3d ac1b c7bd 820d 013e 8231 3d3e
00000030: 4a04 67be d4c1 e4bd c433 583e f085 ce3d
00000040: e0b4 07bc 9c5d c4bd 2637 393e 8064 a93d
00000050: b683 023e 104d 8b3d d47d 813d b864 febd
00000060: c8fe 393d d409 513e 005f d4bc b484 703e
00000070: 9ad6 61be 92f9 6abe 009c cf3b 00e9 2bbb
00000080: d096 e33d 3205 1cbe 9a63 5ebe e682 543e
00000090: a023 aa3c 1ebb 5abe 485f 923d 0046 80ba
000000a0: ac96 c23d 761c 623e c0fb a5bd fe34 1a3e
000000b0: 4cbb dabd b03f c4bc d0c6 1bbe c400 aebd
000000c0: d04c 303d 3296 633e 808c 9abd b864 61bd
000000d0: 28e6 cdbd 925b 3fbe e2eb 64be f4b1 1dbe
000000e0: f860 c0bd 409b 6ebc 38a4 5bbe 58a6 21bd
000000f0: 6aa8 40be 3c88 96bd a830 e23d c8fc 423d

enc1.0.conv1.pointwise.bias f4 [4]
0.10552132 -0.073417425 -0.07318357 -0.23343208
00000000: 901b d83d e05b 96bd 44e1 95bd d208 6fbe

enc1.0.conv2.depthwise.weight f4 [4, 1, 5, 5]
0.17643082 0.016413664 -0.037594795 -0.16162443 0.14485975 0.11640568 0.07150364 -0.19141231
0.065141514 0.113834165 0.1427547 0.016343975 -0.12595867 -0.16048117 -0.1540006 0.14203537
-0.13949274 0.08857973 -0.10589452 0.17879264 -0.08858023 -0.115256645 0.101530455 -0.12983452
-0.15514533 -0.028401256 -0.16816007 0.07038963 -0.05760939 0.14918414 -0.089276604 0.031466246
0.19522965 -0.16723187 0.04210625 -0.09688258 -0.089873195 -0.061803676 -0.19307709 0.040721416
-0.09211898 -0.0059459927 -0.18740495 0.19974148 0.00051534176 0.11054804 0.16008134 -0.18578723
-0.02367866 0.07019625 0.028733373 -0.028908301 -0.15261236 -0.09739204 0.182814 -0.16043523
0.06770976 0.107143424 -0.0070596933 -0.19997743 -0.19405775 0.017694736 -0.10227215 -0.02860253
-0.15479468 0.09280532 0.018125677 0.039347555 -0.17848206 -0.16139102 0.01779294 -0.14942436
0.06261616 -0.07469678 -0.012809396 -0.032817293 -0.081885435 0.13491929 -0.15546565 -0.10494876
0.027383042 0.1670049 0.19628659 0.1063709 0.05541811 0.16409658 0.035969045 -0.17400818
-0.12475886 -0.045659114 -0.10115764 0.03102696 -0.17240615 -0.0067663672 -0.18679963 0.057665348
-0.018290877 0.14113557 0.048440006 0.16301052
00000000: 48aa 343e f375 863c 00fd 19bd e080 25be
00000010: 1d56 143e 1a66 ee3d 8070 923d 9701 44be
00000020: ea68 853d e321 e93d 4a2e 123e cde3 853c
00000030: 4ffb 00be 2d55 24be 55b2 1dbe b871 113e
00000040: 2fd7 0ebe 4a69 b53d 3adf d8bd 6b15 373e
00000050: 8d69 b5bd ad0b ecbd 33ef cf3d 57f3 04be
00000060: 6bde 1ebe c0a9 e8bc 2732 2cbe 7028 903d
00000070: d3f7 6bbd bac3 183e a7d6 b6bd c0e2 003d
00000080: 48ea 473e d53e 2bbe 9a77 2c3d 606a c6bd
00000090: 700f b8bd da25 7dbd 00b6 45be 80cb 263d
000000a0: e0a8 bcbd 9ad6 c2bb 15e7 3fbe 0889 4c3e
000000b0: 0018 073a 0367 e23d 5dec 233e 023f 3ebe
000000c0: c0f9 c1bc 0dc3 8f3d 4062 eb3c 1ad1 ecbc
000000d0: 6a46 1cbe 7a75 c7bd 9833 3b3e 2249 24be
000000e0: 6aab 8a3d 036e db3d 0055 e7bb e2c6 4cbe
000000f0: 13b7 46be 8df4 903c 1074 d1bd da4f eabc
00000100: 7f82 1ebe b710 be3d 4d7c 943c e72a 213d
00000110: 00c4 36be b043 25be 80c2 913c b302 19be
00000120: e73c 803d a0fa 98bd 80de 51bc 6d6b 06bd
00000130: 8db3 a7bd 4828 0a3e 6332 1fbe 60ef d6bd
00000140: 6752 e03c 5503 2b3e 5aff 483e fdd8 d93d
00000150: 1afe 623d ef08 283e 4754 133d 332f 32be
00000160: 9381 ffbd 0d05 3bbd bd2b cfbd 402c fe3c
00000170: 3d8b 30be 67b8 ddbb 6748 3fbe 8032 6c3d
00000180: c0d6 95bc d885 103e 0769 463d 3bec 263e

enc1.0.conv2.pointwise.weight f4 [16, 4, 1, 1]
-0.11223763 0.24724543 -0.025177956 -0.07463634 -0.15602732 -0.041561186 0.16285503 0.4062218
0.2708913 -0.29347938 -0.37082773 -0.31802946 -0.13473469 -0.11513102 0.3125189 -0.3755002
-0.28500694 0.23038095 0.38407463 -0.33572352 0.272663 -0.07099259 0.2877863 0.21489173
0.19280916 0.14325953 -0.25238967 0.25617272 0.14379126 -0.38799995 -0.491804 -0.21317136
-0.11493808 -0.31974858 0.46087366 0.23310739 -0.49249804 -0.21511048 -0.12680733 -0.47964656
-0.34525532 -0.14599162 0.48196214 -0.19208169 0.25870806 -0.42387313 0.09806985 -0.44730788
-0.29525363 -0.33837026 0.0040177107 0.48000115 -0.22425187 0.017968237 0.124004364 -0.2619142
-0.3731684 0.37897998 0.37610728 0.43730724 0.2420348 -0.41581762 0.19597852 0.120943606
00000000: d8dc e5bd e82d 7d3e 0042 cebc f0da 98bd
00000010: a0c5 1fbe 103c 2abd 78c3 263e 4efc cf3e
00000020: 44b2 8a3e ee42 96be 22dd bdbe c2d4 a2be
00000030: e4f7 09be d0c9 ebbd 7a02 a03e 9041 c0be
00000040: 6eec 91be fce8 6b3e 6ea5 c43e f4e3 abbe
00000050: 7c9a 8b3e 9064 91bd ba58 933e 940c 5c3e
00000060: c46f 453e a0b2 123e 3839 81be 1229 833e
00000070: 043e 133e eea7 c6be bccd fbbe 9849 5abe
00000080: a864 ebbd 16b6 a3be a2f7 eb3e b4b3 6e3e
00000090: b428 fcbe ec45 5cbe c8d9 01be 3c94 f5be
000000a0: 4ec5 b0be d47e 15be bec3 f63e 10b1 44be
000000b0: 6275 843e e605 d9be d8d8 c83d 8a05 e5be
000000c0: 7c2b 97be de3e adbe 00a7 833b b6c2 f53e
000000d0: 48a2 65be 2032 933c 00f6 fd3d 9e19 86be
000000e0: ee0f bfbe aa09 c23e 2291 c03e bce6 df3e
000000f0: f8d7 773e 0ce6 d4be 98ae 483e 48b1 f73d

enc1.0.conv2.pointwise.bias f4 [16]
0.32694268 0.28473395 -0.39895457 0.12554264 -0.46144778 -0.3580593 -0.10800737 0.07259357
-0.33423454 -0.27012014 -0.42894375 -0.38817018 0.23238945 -0.49132425 -0.33070552 0.1955154
00000000: 0865 a73e a6c8 913e c643 ccbe 408e 003e
00000010: e242 ecbe 8c53 b7be f832 ddbd f0ab 943d
00000020: ca20 abbe 304d 8abe 849e dbbe 3ebe c6be
00000030: 80f7 6d3e da8e fbbe 3c52 a9be 3035 483e

enc1.0.proj.depthwise.weight f4 [16, 1, 3, 3]
0.10622418 -0.1248016 0.17705879 0.2664336 0.31540358 -0.122512504 -0.3016518 0.28025454
0.25413975 0.045722723 -0.33111295 -0.17812543 0.1287735 -0.113840744 0.13066003 -0.19285905
0.15882385 0.11098214 0.24162742 0.05596733 -0.07247456 0.0625604 -0.04114155 0.28850126
-0.23449644 0.09236042 -0.16891322 -0.2681621 0.29256257 0.16606224 -0.13787727 -0.059800707
-0.29279193 0.0067435503 0.18667142 -0.21617226 0.21311402 -0.28282368 -0.054513495 -0.057883304
0.28476533 0.20218103 -0.00031781197 -0.061712466 0.17314641 -0.22990906 -0.0089614 0.19646204
-0.21743672 0.29625666 0.29839176 0.06556773 0.15764341 0.33256432 0.2598425 -0.2307071
-0.2504903 -0.15176463 0.19766247 -0.30446428 0.10520868 -0.27915096 -0.11229738 0.2493738
-0.2827906 0.26486045 -0.22685187 -0.0020409427 0.069043875 0.2748046 0.28597748 0.07432799
-0.097429916 -0.29182827 0.08118777 0.028174043 0.24329114 0.029736837 0.1347861 -0.2893746
0.040729962 -0.30251536 -0.13587937 -0.31657872 -0.27246052 0.29949325 0.048379503 0.2683695
-0.0008510749 -0.087192655 -0.24311933 -0.111590505 0.24449179 0.26059425 -0.08042066 0.079016015
-0.20091721 -0.20926833 -0.30574656 -0.29903072 0.074441515 0.22535257 0.26884764 0.15514195
0.3009314 0.031394362 -0.07040441 0.32987463 0.02346774 -0.06979971 0.20217511 0.298396
-0.09225305 -0.24507658 -0.26526356 -0.22553484 0.21539328 0.27789295 0.24524686 -0.14484262
0.2049011 0.18734634 -0.24589507 -0.15059063 -0.1432544 0.2871216 -0.021527966 0.17095777
-0.08918798 -0.060303293 0.27569017 -0.04777523 -0.2551663 0.2795137 -0.1877755 -0.28675622
-0.045273386 -0.03511099 0.22265276 0.0706141 -0.20113985 -0.13304257 0.15728843 0.3154485
00000000: 108c d93d fb97 ffbd e64e 353e fc69 883e
00000010: 947c a13e d6e7 fabd 1b72 9abe 867d 8f3e
00000020: 9b1e 823e c047 3b3d a387 a9be 8366 36be
00000030: 33dd 033e 5625 e9bd becb 053e d87c 45be
00000040: b8a2 223e 9b4a e33d 2e6d 773e 003e 653d
00000050: 8b6d 94bd ab1f 803d 0b84 28bd 70b6 933e
00000060: d61f 70be 7627 bd3d 96f7 2cbe 8b4c 89be
00000070: c3ca 953e 380c 2a3e b32f 0dbe 96f1 74bd
00000080: d3e8 95be 00f9 dc3b cb26 3f3e 435c 5dbe
00000090: 903a 5a3e 44ce 90be 8b49 5fbd 0b17 6dbd
000000a0: c3cc 913e 8b08 4f3e 00a0 a6b9 36c6 7cbd
000000b0: 4b4d 313e 486d 6bbe d6d2 12bc 582d 493e
000000c0: bba7 5ebe f4ae 973e cec6 983e 6048 863d
000000d0: 466d 213e df45 aa3e 130a 853e 7b3e 6cbe
000000e0: 4440 80be 3068 1bbe 0868 4a3e bee2 9bbe
000000f0: a677 d73d e0ec 8ebe 2bfc e5bd d85b 7f3e
00000100: eec9 90be ca9b 873e db4b 68be 56c1 05bb
00000110: e066 8d3d 30b3 8c3e a46b 923e 4639 983d
00000120: 5689 c7bd 846a 95be c645 a63d 40cd e63c
00000130: 5021 793e ab9a f33c 5e05 0a3e e828 94be
00000140: 76d4 263d 4be3 9abe f623 0bbe 9b16 a2be
00000150: f27f 8bbe 2e57 993e 9629 463d ba67 893e
00000160: ab1a 5fba 1092 b2bd 46f4 78be 9089 e4bd
00000170: 0e5c 7a3e 9c6c 853e 96b3 a4bd 26d3 a13d
00000180: 3ebd 4dbe 704a 56be d08a 9cbe 8e1a 99be
00000190: cb74 983d d3c2 663e 66a6 893e 88dd 1e3e
000001a0: ae13 9a3e 6097 003d 3030 90bd 54e5 a83e
000001b0: 6b3f c03c 26f3 8ebd fe06 4f3e 5cc7 983e
000001c0: 2bef bcbd 5bf5 7abe a0d0 87be 9bf2 66be
000001d0: 0e90 5c3e fc47 8e3e fe21 7b3e a051 14be
000001e0: 98d1 513e b8d7 3f3e ebcb 7bbe 6e34 1abe
000001f0: 48b1 12be 9a01 933e 6b5b b0bc 8e0f 2f3e
00000200: 30a8 b6bd 9600 77bd 4327 8d3e f6af 43bd
00000210: 28a5 82be 6b1c 8f3e 3848 40be b6d1 92be
00000220: 9670 39bd 8bd0 0fbd 16ff 633e 209e 903d
00000230: 9bf7 4dbe 503c 08be 3810 213e 7782 a13e

enc1.0.proj.pointwise.weight f4 [16, 16, 1, 1]
0.14240521 -0.07149446 0.024628729 0.18462577 -0.10955918 0.01221481 -0.12844077 0.17903909
0.08633539 0.24264994 0.22969529 0.23691627 0.100254595 0.20341918 0.20106497 -0.022780687
0.028581083 0.19183415 0.14794388 -0.12856165 -0.07434672 0.018922508 -0.21280643 0.06056148
0.16663402 0.2458941 0.19513562 -0.23916394 0.16258678 -0.12433687 0.17027253 0.10857105
-0.0494273 -0.15951821 -0.12394282 -0.21475124 -0.030554205 0.06620249 -0.060273707 -0.12639415
-0.1314928 0.20269832 0.089252174 0.16215461 0.15966803 0.038052022 -0.13988835 -0.06294927
-0.09197357 0.05289972 0.13795996 0.21869594 -0.19779661 -0.033266693 -0.083218515 0.19194803
-0.007521689 -0.03548357 0.025781572 0.02001527 -0.07034564 -0.02205816 0.042691797 0.15422872
-0.040516615 -0.23725784 -0.14717296 -0.17323866 -0.0387277 -0.122166276 0.22277889 0.04339227
0.22741687 0.057510763 0.14724213 -0.22234094 0.042552084 -0.07365537 0.043716878 0.23836291
0.24657094 -0.0025015175 0.1441004 -0.23139325 -0.21770895 -0.02230835 -0.12399292 0.07940245
0.15439609 -0.10878715 -0.037857562 0.080283195 -0.037180603 0.19994688 0.18792361 -0.17360279
-0.21466568 0.026887745 -0.019207865 -0.053476095 -0.033290982 0.122330755 -0.24583143 0.22298864
0.12542918 0.18333977 -0.029034287 0.22081086 -0.18990341 -0.093976974 -0.060850114 0.118439704
-0.22199467 -0.031531125 -0.10945487 -0.005777031 0.09246829 0.09931609 0.174461 0.005159855
0.018439025 0.036221176 -0.035417914 -0.10687378 0.025863051 0.14768875 -0.048031807 -0.15367296
0.104097545 -0.19671649 -0.114556074 0.11643919 0.18176425 0.03267768 -0.00306651 -0.1864039
0.22553557 0.15259787 0.15634611 0.11892563 0.20092157 -0.09817776 -0.10317722 0.10886821
-0.10901183 -0.21284354 -0.21891436 -0.18063411 0.14338014 0.2233248 0.13626578 -0.18886188
0.14344689 -0.16948855 -0.047384202 -0.14940569 0.10924348 0.14563382 -0.07112971 0.03629917
-0.0962134 -0.1883986 -0.21797144 -0.08441815 -0.14198261 0.22327796 0.0033250153 -0.16228303
0.24019364 0.17407334 -0.22500575 0.15870014 -0.24592799 -0.091305315 -0.20633852 0.05990991
-0.14029875 0.19934633 -0.22145143 -0.05179572 -0.032353073 0.10965705 -0.01050061 -0.13319185
-0.17849568 0.2104469 0.027724147 -0.11578959 -0.24480909 0.13316542 0.10133916 0.14081621
0.15568757 0.051000178 -0.19753516 -0.15844312 -0.15651172 -0.2014443 0.100559115 0.106426954
0.17551455 -0.06639692 -0.22780776 -0.22085756 -0.24756706 -0.17836359 0.1868732 0.13405406
0.15832129 0.040467083 0.24849823 -0.24947208 -0.047157556 -0.08861625 0.22808158 0.06078878
-0.08162233 -0.16090417 -0.22471061 0.09382397 -0.09836894 0.18840834 -0.13677469 -0.036564082
-0.10011482 -0.032699794 0.11925098 -0.14165026 -0.23599061 -0.19124082 -0.19245917 0.0057735145
0.16513246 0.22519374 0.20613447 -0.18132108 -0.23502254 0.18232796 0.0700447 -0.0101136565
0.12184122 0.11434418 0.20660692 -0.19421941 0.010050833 0.101931304 0.18427712 -0.16636622
0.14280826 -0.117367566 -0.14485991 0.22975883 -0.19236675 0.028391957 -0.097875684 -0.15692085
00000000: acd2 113e b06b 92bd 30c2 c93c 8a0e 3d3e
00000010: 9060 e0bd a020 483c fa85 03be 0656 373e
00000020: 9cd0 b03d 3a79 783e 3e35 6b3e 2e9a 723e
00000030: 4852 cd3d 1e4d 503e fae3 4d3e 909e babc
00000040: e022 ea3c 2c70 443e 9a7e 173e aaa5 03be
00000050: 1843 98bd 6003 9b3c eee9 59be 500f 783d
00000060: 1ca2 2a3e aacb 7b3e a2d1 473e 64e7 74be
00000070: 267d 263e 54a4 febd ec5b 2e3e 805a de3d
00000080: 4874 4abd be58 23be bcd5 fdbd c0e7 5bbe
00000090: d04c fabc 2c95 873d 90e1 76bd 786d 01be
000000a0: 0ca6 06be 2690 4f3e d8c9 b63d dc0b 263e
000000b0: 0480 233e 70dc 1b3d e43e 0fbe 8ceb 80bd
000000c0: a45c bcbd 60ad 583d 6045 0d3e d4f1 5f3e
000000d0: 328b 4abe a842 08bd 786e aabd 068e 443e
000000e0: 8078 f6bb 3857 11bd e033 d33c 10f7 a33c
000000f0: 6011 90bd 50b3 b4bc 98dd 2e3d 22ee 1d3e
00000100: c0f4 25bd b8f3 72be 82b4 16be 7a65 31be
00000110: f0a0 1ebd 5032 fabd 2620 643e 18bc 313d
00000120: f8df 683e 6890 6b3d a4c6 163e 58ad 63be
00000130: 184b 2e3d a0d8 96bd 7810 333d 6815 743e
00000140: 187d 7c3e 80f0 23bb 0e8f 133e 5af2 6cbe
00000150: 18ef 5ebe 00c0 b6bc 00f0 fdbd c09d a23d
00000160: 021a 1e3e cccb debd 8810 1bbd 846b a43d
00000170: b04a 18bd e0be 4c3e 0c6f 403e eec4 31be
00000180: 52d1 5bbe b043 dc3c d059 9dbc c009 5bbd
00000190: 205c 08bd 8c88 fa3d 3cbb 7bbe 2257 643e
000001a0: 8270 003e 6cbd 3b3e 50d9 edbc 3e1c 623e
000001b0: 0a76 42be 0077 c0bd f83d 79bd 8490 f23d
000001c0: 9252 63be c826 01bd e029 e0bd 404d bdbb
000001d0: 0460 bd3d 3c66 cb3d e8a5 323e 0014 a93b
000001e0: 700d 973c a85c 143d 6012 11bd a4e0 dabd
000001f0: c0de d33c b83b 173e 00bd 44bd 725c 1dbe
00000200: 1831 d53d 0c70 49be 609c eabd ac77 ee3d
00000210: 6820 3a3e 08d9 053d 80f7 48bb aae0 3ebe
00000220: ccf2 663e 9e42 1c3e 3219 203e 488f f33d
00000230: 62be 4d3e 6c11 c9bd 944e d3bd 4cf6 de3d
00000240: 9841 dfbd a8f3 59be 162b 60be 26f8 38be
00000250: 3ed2 123e 42af 643e 4289 0b3e 0265 41be
00000260: bee3 123e 688e 2dbe f015 42bd cefd 18be
00000270: 0cbb df3d 0821 153e 74ac 91bd 70ae 143d
00000280: 880b c5bd 90eb 40be e833 5fbe 6ce3 acbd
00000290: e463 11be faa2 643e 80e8 593b 862d 26be
000002a0: 52f5 753e 4840 323e e867 66be 4a82 223e
000002b0: 8cd4 7bbe 48fe babd 684a 53be 1864 753d
000002c0: 7aaa 0fbe 7221 4c3e 2ac4 62be c027 54bd
000002d0: a884 04bd e093 e03d c00a 2cbc 7263 08be
000002e0: 92c7 36be 647f 573e c01d e33c 1823 edbd
000002f0: 3caf 7abe 845c 083e e88a cf3d 2032 103e
00000300: 906c 1f3e 90e5 503d a846 4abe ea3e 22be
00000310: 9c44 20be 6a47 4ebe f0f1 cd3d 60f6 d93d
00000320: 16ba 333e 1cfb 87bd 7046 69be 7c28 62be
00000330: 3882 7dbe f2a4 36be b05b 3f3e 7845 093e
00000340: fa1e 223e d0c0 253d 5276 7e3e 9c75 7fbe
00000350: 4828 41bd 707c b5bd 388e 693e a8fd 783d
00000360: 9c29 a7bd 10c4 24be 8a1a 66be c826 c03d
00000370: a875 c9bd 1eee 403e aa0e 0cbe 38c4 15bd
00000380: 0009 cdbd 38f0 05bd dc39 f43d c40c 11be
00000390: 86a7 71be a2d4 43be 0414 45be c02f bd3b
000003a0: 7c18 293e 3099 663e ea14 533e 3cac 39be
000003b0: c0a9 70be 2eb4 3a3e 9873 8f3d c0b3 25bc
000003c0: e487 f93d 482d ea3d c490 533e 74e1 46be
000003d0: 40ac 243c 5cc1 d03d 24b3 3c3e e85b 2abe
000003e0: 543c 123e 685e f0bd 2856 14be e645 6b3e
000003f0: cafb 44be 4096 e83c 0c73 c8bd dcaf 20be

enc1.0.proj.pointwise.bias f4 [16]
0.06289372 -0.07625216 0.15799174 0.14618054 0.054794997 -0.22460908 0.008973718 0.20712638
-0.021539629 0.06635034 0.18734697 0.23899406 0.19458222 -0.13333279 -0.10451165 -0.067515045
00000000: 6cce 803d 182a 9cbd 96c8 213e 5ab0 153e
00000010: b870 603d ecff 65be 8006 133c f018 543e
00000020: e073 b0bc b0e2 873d e2d7 3f3e dcba 743e
00000030: 9040 473e 6488 08be 340a d6bd 5445 8abd

enc1.1.beta f4 [1, 16, 1, 1]
0.0 0.0 0.0 0.0 0.0 0.0 0.0 0.0
0.0 0.0 0.0 0.0 0.0 0.0 0.0 0.0
00000000: 0000 0000 0000 0000 0000 0000 0000 0000
00000010: 0000 0000 0000 0000 0000 0000 0000 0000
00000020: 0000 0000 0000 0000 0000 0000 0000 0000
00000030: 0000 0000 0000 0000 0000 0000 0000 0000

enc1.1.conv1.weight f4 [32, 16, 1, 1]
-0.15817705 -0.20231712 0.07732999 -0.15368795 -0.1535882 -0.09494826 -0.19566458 0.08050147
-0.22381875 0.07608238 0.20729017 0.14969853 0.057260126 0.10765168 0.22896773 -0.07745457
-0.10656974 0.11568454 0.030358285 -0.09768179 0.19265121 -0.008247912 0.023046434 0.072339654
-0.17435494 -0.07612118 -0.17317566 0.12057635 -0.06777981 -0.056777716 -0.10580382 -0.07930255
0.13860306 0.025410682 -0.15110853 0.13561898 -0.21091086 -0.24944994 -0.23410472 0.0077842176
-0.14479566 -0.03688392 -0.10258523 0.11770606 0.07438046 -0.053610176 -0.20891663 -0.050999314
-0.18282574 -0.16438279 -0.18519616 0.21949917 -0.03183672 -0.0011084378 -0.24990591 -0.051853478
-0.22499397 -0.19968548 0.24966139 -0.031608284 0.10805398 -0.1072765 -0.17207232 0.025466204
-0.05466357 0.20502576 0.059385926 0.13850546 0.12942067 0.22284424 0.24381942 0.08629149
-0.039282054 0.2079666 0.024535775 -0.22473481 0.0851208 -0.23212147 0.12825242 0.121307254
0.10782379 -0.07881603 0.084824026 -0.2472525 0.18589982 0.17024234 0.14458296 0.16351786
-0.060455292 0.14928171 0.09410867 0.09302053 0.1277489 0.06116894 -0.19549575 -0.175966
0.2119672 0.05266115 0.003354609 -0.008598864 -0.110403895 -0.10502681 0.108859 0.0073515773
0.07991177 -0.07969433 -0.133131 -0.22838175 -0.18590307 -0.0047207475 0.07146749 0.21618515
-0.04836011 -0.09963298 -0.17543292 -0.16038701 -0.0115967095 0.13707915 -0.2319414 -0.020803213
0.19079128 -0.0822247 0.18285963 0.17949066 0.089338064 -0.13980657 0.23008949 -0.2246826
-0.14921963 -0.04995495 0.0841063 0.23583975 -0.21206582 0.23244521 -0.1124571 0.19997433
-0.21218157 -0.2433832 0.018698722 0.006976098 -0.2197026 0.17550004 0.022922486 -0.21786201
0.083334684 0.058979005 -0.023906201 -0.090376824 -0.21066946 0.10443735 0.22884157 -0.06324455
-0.014020354 0.18076092 -0.09258947 0.090144485 -0.13855246 0.219331 0.0041715205 -0.0037774444
0.17443222 0.1130113 -0.07596797 -0.19773495 -0.10899213 -0.05329123 -0.09198311 0.2080077
0.13020653 -0.15881005 -0.056248754 -0.2326372 0.1014114 0.21337691 -0.14205533 -0.17452684
-0.19284093 -0.17667049 0.006175518 -0.19752854 -0.13403547 0.01870659 -0.06967464 0.092193335
0.15188637 -0.03643638 -0.08535218 -0.20684606 0.0376994 0.14583659 -0.15812284 -0.12497303
0.033763528 0.1431289 -0.24712726 0.008249998 -0.049487233 0.15230152 0.0706228 0.007390082
-0.04261723 0.053682268 -0.11376846 -0.016598642 0.017652154 -0.20320055 -0.190119 0.2464742
0.039466888 0.14634055 0.14030105 -0.08374575 -0.0042344034 0.06644085 0.15164691 0.15613857
0.052225113 -0.09461388 0.15687749 -0.05657649 0.037906736 -0.04912585 0.068152696 0.2077958
-0.18055907 -0.119615704 0.032779753 -0.075011015 0.049004048 -0.019606799 -0.17370409 -0.202726
-0.06157434 0.17007238 0.17681259 0.039298534 0.026040614 -0.22794038 0.2228176 0.02990383
0.03453237 0.023620933 0.13534215 0.20632434 0.061162144 0.011437058 -0.09773326 -0.15989372
-0.027623951 0.08434653 -0.1929912 0.12792602 -0.09079549 0.083707064 -0.24663973 0.16174951
00000000: 2af9 21be 382c 4fbe 305f 9e3d 6060 1dbe
00000010: 3a46 1dbe 3c74 c2bd 4c5c 48be f4dd a43d
00000020: be30 65be 14d1 9b3d e043 543e 924a 193e
00000030: 9889 6a3d 7c78 dc3d 8476 6a3e 80a0 9ebd
00000040: 3c41 dabd 04ec ec3d f0b1 f83c 640d c8bd
00000050: 5c46 453e 4022 07bc e0cb bc3c d026 943d
00000060: 1a8a 32be 6ce5 9bbd f654 31be bcf0 f63d
00000070: 24d0 8abd c08f 68bd acaf d8bd 6069 a2bd
00000080: f6ed 0d3e 102a d03c 32bc 1abe b4df 0a3e
00000090: 04f9 57be ce6f 7fbe 26b9 6fbe c012 ff3b
000000a0: 5045 14be 9813 17bd 3418 d2bd e00f f13d
000000b0: c854 983d 5896 5bbd 3eee 55be a8e4 50bd
000000c0: ac36 3bbe f653 28be 10a4 3dbe 64c4 603e
000000d0: 3867 02bd 0049 91ba 56e7 7fbe 5064 54bd
000000e0: d264 66be 5a7a 4cbe 3ca7 7f3e b077 01bd
000000f0: 684b dd3d c8b3 dbbd ba33 30be 809e d03c
00000100: e8e6 5fbd 46f2 513e a83e 733d 60d4 0d3e
00000110: da86 043e 4831 643e ccab 793e 98b9 b03d
00000120: 38e6 20bd 32f5 543e 40ff c83c e220 66be
00000130: d053 ae3d 40b1 6dbe 9a54 033e f06f f83d
00000140: b8d2 dc3d 4c6a a1bd 38b8 ad3d c22f 7dbe
00000150: 865c 3e3e 0254 2e3e 8e0d 143e 3a71 273e
00000160: f89f 77bd 4edd 183e 0cbc c03d 8c81 be3d
00000170: 9cd0 023e 488c 7a3d 0a30 48be 6e30 34be
00000180: ee0d 593e 38b3 573d 00d9 5b3b 40e2 0cbc
00000190: 701b e2bd 4c18 d7bd 78f1 de3d 80e5 f03b
000001a0: c8a8 a33d c836 a3bd 7e53 08be e8dc 69be
000001b0: 605d 3ebe 80b0 9abb 8c5d 923d a45f 5d3e
000001c0: 4015 46bd 600c ccbd b0a4 33be 7e3c 24be
000001d0: 2000 3ebc 7a5e 0c3e 0c82 6dbe 806b aabc
000001e0: ca5e 433e 6c65 a8bd 8e3f 3b3e 66cc 373e
000001f0: e0f6 b63d 7429 0fbe 949c 6b3e 3213 66be
00000200: 08cd 18be 909d 4cbd ec3f ac3d fa7f 713e
00000210: c827 59be 1e06 6e3e e84f e6bd 12c6 4c3e
00000220: 2046 59be 7239 79be 102e 993c c097 e43b
00000230: b8f9 60be 48b6 333e f0c7 bb3c 3817 5fbe
00000240: 60ab aa3d f893 713d f0d6 c3bc 7c17 b9bd
00000250: bcb9 57be 40e3 d53d 7255 6a3e 5c86 81bd
00000260: a0b5 65bc 6419 393e 8c9f bdbd ac9d b83d
00000270: b2e0 0dbe 4e98 603e 40b1 883b 008f 77bb
00000280: 5c9e 323e 7872 e73d 1895 9bbd 087b 4abe
00000290: 4437 dfbd e847 5abd a461 bcbd f8ff 543e
000002a0: dc54 053e 1a9f 22be 1865 66bd 7238 6ebe
000002b0: c8b0 cf3d 7a7f 5a3e f476 11be 2ab7 32be
000002c0: 1878 45be 1ce9 34be 005c ca3b ec44 4abe
000002d0: 9840 09be 903e 993c 94b1 8ebd dccf bc3d
000002e0: 1a88 1b3e 503e 15bd 20cd aebd 74cf 53be
000002f0: b06a 1a3d 3056 153e f4ea 21be dcf1 ffbd
00000300: a04b 0a3d 6290 123e ee0e 7dbe 002b 073c
00000310: 20b3 4abd eef4 1b3e b0a2 903d 8028 f23b
00000320: 688f 2ebd f0e1 5b3d 70ff e8bd e0f9 87bc
00000330: 409b 903c ce13 50be 8eae 42be bc63 7c3e
00000340: 08a8 213d 4cda 153e 14ab 0f3e e482 abbd
00000350: c0c0 8abb 2412 883d 5449 1b3e cae2 1f3e
00000360: 00ea 553d ecc4 c1bd 7ea4 203e c0bc 67bd
00000370: 1844 1b3d 3038 49bd a493 8b3d 6cc8 543e
00000380: 7ae4 38be 14f9 f4bd 1044 063d 609f 99bd
00000390: 78b8 483d 709e a0bc 7cdf 31be 6897 4fbe
000003a0: 6035 7cbd 7427 2e3e 5c0e 353e 80f7 203d
000003b0: 2053 d53c 3469 69be 4c2a 643e e0f8 f43c
000003c0: d071 0d3d b080 c13c 2297 0a3e b046 533e
000003d0: 2885 7a3d 8062 3b3c 6028 c8bd 2ebb 23be
000003e0: a04b e2bc e0bd ac3d 7c9f 45be 0aff 023e
000003f0: fcf2 b9bd 9c6e ab3d 208f 7cbe aaa1 253e

enc1.1.conv1.bias f4 [32]
-0.18660808 -0.13927317 0.1347397 0.22058049 0.050742567 0.199505 0.12525174 -0.086657524
-0.24921456 -0.24245578 0.013508588 -0.027204633 -0.06679973 0.02668935 -0.15083179 0.0031197667
0.24229378 0.13065863 -0.20849559 0.042144537 -0.13166112 0.12054098 0.22818643 0.020061046
-0.18666118 -0.10591948 0.053999662 0.10180476 -0.1980766 0.12434018 0.18282276 -0.040650994
00000000: 3016 3fbe a09d 0ebe 34f9 093e dadf 613e
00000010: 70d7 4f3d 0a4b 4c3e fe41 003e 8079 b1bd
00000020: 1a32 7fbe 5446 78be 2053 5d3c 40dc debc
00000030: 4cce 88bd a0a3 da3c a673 1abe 0075 4c3b
00000040: dc1b 783e 60cb 053e de7f 55be c09f 2c3d
00000050: 2cd2 06be 30de f63d b4a9 693e 1057 a43c
00000060: 1c24 3fbe 50ec d8bd c02e 5d3d 047f d03d
00000070: 98d4 4abe 10a6 fe3d e435 3b3e a881 26bd

enc1.1.conv2.weight f4 [32, 1, 3, 3]
0.046927057 -0.18710558 0.13807344 0.26247633 -0.040063225 -0.16092972 -0.04776808 -0.10552561
0.12308769 0.18942472 0.16859917 0.0071047945 0.2035271 0.27255446 -0.18086009 0.24759567
0.24843287 -0.12410724 -0.09889575 -0.3299458 0.28492534 0.29653808 0.29383367 0.3155628
0.15080437 0.14528577 0.2502099 0.045649093 0.20364472 -0.17374007 0.31643224 -0.27071327
0.056243263 -0.2370331 0.0014852285 -0.112109706 -0.30969462 -0.24340439 -0.30472875 0.025528392
-0.040999733 0.0054254136 -0.18172789 -0.043904584 0.036206406 -0.27611357 -0.23017263 -0.026978731
0.1154873 -0.31586847 0.21360128 0.2882623 0.09077191 -0.14621386 -0.0037479005 0.13222358
-0.29719597 -0.28643617 -0.22036397 0.0408508 -0.16846892 0.28751868 0.27564782 -0.24116898
-0.12923507 0.31767175 0.27361342 0.32669613 -0.2835905 0.008265376 -0.21606807 -0.06689616
-0.14775261 0.3230824 -0.23503944 -0.21019916 -0.26777387 0.30543834 0.17555499 0.069649816
0.024126291 0.10533719 0.23368129 -0.33039397 0.010671696 -0.0009513299 -0.2242558 -0.11003693
-0.1955611 0.09011571 0.0025576751 -0.25324857 0.019748172 -0.26099604 -0.1091557 0.2677669
0.28499135 0.30332407 0.23827136 -0.08627558 0.2154449 -0.03337423 -0.07446595 0.15576228
-0.004625281 0.14318597 0.23036143 -0.10962598 0.3213645 0.057303708 -0.023322701 -0.07941902
0.18106815 0.03236282 -0.27790493 0.24611497 0.21118657 0.037241142 -0.3165105 -0.10506773
-0.18706171 0.26898572 -0.0013154745 0.20378813 -0.1240015 0.26403877 0.32847565 -0.12602553
0.09255326 0.17586586 0.22146973 0.19228983 0.19067733 0.26736316 -0.28234348 -0.24932966
0.24388134 -0.11409581 0.32998428 -0.31145525 0.27362204 -0.008093834 0.18439126 0.32605797
0.0589662 0.0061866045 0.26642808 -0.11025743 0.08145984 0.24733591 -0.11650368 -0.13153133
-0.009030065 -0.29181218 -0.052139126 0.17195074 0.19558613 0.3164066 -0.040145837 -0.1831346
-0.23149824 -0.03979528 0.050120115 -0.14733312 -0.08757242 0.23311512 -0.25698954 0.04591207
-0.2755341 -0.080055594 -0.3214427 0.19843337 0.18028602 -0.20774007 -0.17594986 -0.09092724
-0.023418307 -0.06945352 -0.0826128 0.18968463 0.0897824 -0.03972336 0.07927644 -0.23937938
0.205394 -0.24212492 -0.17048554 -0.32853103 -0.26218957 0.12792246 -0.08328899 0.14532165
-0.042911015 -0.16034171 -0.11694106 -0.22173998 -0.076288864 -0.005168597 0.18504629 -0.046060048
0.24255602 0.15275419 -0.2063019 0.070019886 -0.24876074 0.033320468 0.25661355 0.18685508
-0.09272464 0.31557685 0.08942835 -0.0095808115 -0.13263154 0.22094485 -0.048431754 0.16035053
0.23103838 -0.08434963 -0.24663238 0.16964404 -0.059454083 0.2745518 0.07882925 -0.23975234
-0.09525585 0.180619 -0.0037121773 -0.15836744 0.17282927 0.1995996 -0.30236992 -0.0836558
-0.31034797 0.25041816 -0.23008871 0.037403982 -0.116751716 -0.17443988 0.16001217 -0.24733254
0.0005487999 -0.25719818 0.025701046 -0.06706357 0.03137815 0.019852638 0.0017792385 -0.12156117
0.22774112 0.2563324 0.28254896 -0.20170943 -0.30646896 -0.30259082 -0.15288989 -0.2262536
00000000: 9636 403d 9b98 3fbe 2063 0d3e 4c63 863e
00000010: 5619 24bd c3ca 24be 76a8 43bd d01d d8bd
00000020: 6615 fc3d 8ef8 413e 43a5 2c3e 56cf e83b
00000030: 6869 503e 428c 8b3e 6333 39be b889 7d3e
00000040: 3065 7e3e f02b febd db89 cabd a8ee a8be
00000050: bce1 913e d7d3 973e 5e71 963e 7391 a13e
00000060: 766c 1a3e cbc5 143e 831b 803e 8bfa 3a3d
00000070: 3e88 503e ebe8 31be 6803 a23e ee9a 8abe
00000080: 565f 663d ceb8 72be 00ac c23a c699 e5bd
00000090: 4b90 9ebe 003f 79be 6805 9cbe eb20 d13c
000000a0: 56ef 27bd abc7 b13b e016 3abe 4bd5 33bd
000000b0: 2b4d 143d c25e 8dbe 60b2 6bbe 8002 ddbc
000000c0: 9b84 ec3d 83b9 a1be 4bba 5a3e 1e97 933e
000000d0: a0e6 b93d 16b9 15be 569f 75bb 9e65 073e
000000e0: 122a 98be c3a7 92be 18a7 61be 2b53 273d
000000f0: 1e83 2cbe a635 933e b621 8d3e 00f5 76be
00000100: 3356 04be dfa5 a23e 0f17 8c3e b744 a73e
00000110: c632 91be 806b 073c f340 5dbe db00 89bd
00000120: 764c 17be 0e6b a53e 2eae 70be 733e 57be
00000130: a819 89be 6a62 9c3e b0c4 333e 90a4 8e3d
00000140: 80a4 c53c 06bb d73d 264a 6f3e 6629 a9be
00000150: 56d8 2e3c ab62 79ba 50a3 65be 0b5b e1bd
00000160: 2b41 48be 968e b83d ab9e 273b cca9 81be
00000170: ebc6 a13c 46a1 85be 068d dfbd be18 893e
00000180: 63ea 913e 4b4d 9b3e 68fd 733e 40b1 b0bd
00000190: 969d 5c3e 6bb3 08bd 9b81 98bd 2680 1f3e
000001a0: ab8f 97bb 589f 123e dee3 6b3e 9683 e0bd
000001b0: e389 a43e 4bb7 6a3d 400f bfbc 70a6 a2bd
000001c0: ee69 393e e08e 043d 8e49 8ebe 9005 7c3e
000001d0: 4b41 583e 2b8a 183d aa0d a2be c02d d7bd
000001e0: 1b8d 3fbe 7fb8 893e 006c acba d6ad 503e
000001f0: 80f4 fdbd 1730 873e f62d a83e d60c 01be
00000200: 908c bd3d 2e16 343e f6c8 623e a0e7 443e
00000210: eb40 433e d3e3 883e 538f 90be 4650 7fbe
00000220: 08bc 793e 10ab e9bd b3f3 a83e 1077 9fbe
00000230: 3018 8c3e 009c 04bc 10d1 3c3e 12f1 a63e
00000240: 8b86 713d 00b9 ca3b 4369 883e a6ce e1bd
00000250: 6bd4 a63d a045 7d3e 7b99 eebd 26b0 06be
00000260: d6f2 13bc 6868 95be d68f 55bd db13 303e
00000270: bb47 483e 0c00 a23e f66f 24bd a387 3bbe
00000280: e00d 6dbe 6000 23bd c04a 4d3d 7ede 16be
00000290: 2b59 b3bd bbb5 6e3e 2294 83be 4b0e 3c3d
000002a0: ce12 8dbe 30f4 a3bd 2394 a4be 1e32 4b3e
000002b0: e69c 383e d0b9 54be 332c 34be 1038 babd
000002c0: c0d7 bfbc a63d 8ebd e630 a9bd b03c 423e
000002d0: d6df b73d f6b4 22bd b05b a23d de1f 75be
000002e0: ce52 523e 98ef 77be c393 2ebe 3835 a8be
000002f0: b63d 86be 1bfe 023e 6b93 aabd 33cf 143e
00000300: 76c3 2fbd 9e30 24be cb7e efbd ce0f 63be
00000310: 563d 9cbd 565d a9bb c67c 3d3e 76a9 3cbd
00000320: 9b60 783e 986b 1c3e ce40 53be 9666 8f3d
00000330: 23bb 7ebe 0b7b 083d da62 833e f056 3f3e
00000340: 6be6 bdbd 4a93 a13e 3626 b73d d6f8 1cbc
00000350: 90d0 07be 5e3f 623e 6060 46bd ee32 243e
00000360: 5395 6c3e 80bf acbd 338d 7cbe 2bb7 2d3e
00000370: 2086 73bd 0e92 8c3e 3b71 a13d a381 75be
00000380: 8015 c3bd 30f4 383e 0048 73bb 132b 22be
00000390: 28fa 303e d663 4c3e 3bd0 9abe bb53 abbd
000003a0: eee5 9ebe cf36 803e 609c 6bbe eb34 193d
000003b0: 861b efbd 5ea0 32be 3bda 233e be44 7dbe
000003c0: 56dd 0f3a 7baf 83be 008b d23c a058 89bd
000003d0: 6086 003d 00a2 a23c 5635 e93a 10f5 f8bd
000003e0: f834 693e 003e 833e 42aa 903e eb8c 4ebe
000003f0: 80e9 9cbe 2fed 9abe 2b8f 1cbe 06af 67be

enc1.1.conv2.bias f4 [32]
0.0728163 -0.11340611 -0.005550464 -0.2519086 -0.31005055 0.052548133 -0.04120223 0.043707132
-0.15721774 0.043614946 -0.10014852 0.20868473 -0.25696045 -0.050229512 -0.16300297 -0.1645908
0.10896826 -0.16611414 0.25876975 0.26496097 0.15725958 0.04201607 -0.13273105 0.0022161803
0.27778816 -0.15340567 0.054911178 -0.030453682 -0.32163084 -0.27069426 -0.0053850813 0.014434378
00000000: b620 953d 7641 e8bd abe0 b5bb 2afa 80be
00000010: f2be 9ebe b63c 573d abc3 28bd 4006 333d
00000020: b0fd 20be 96a5 323d ab1a cdbd 73b1 553e
00000030: 5290 83be 76bd 4dbd 40ea 26be 7e8a 28be
00000040: c02a df3d d319 2abe 787d 843e f7a8 873e
00000050: a808 213e 0b19 2c3d a6ea 07be 563d 113b
00000060: 403a 8e3e 6016 1dbe 8bea 603d 007a f9bc
00000070: ccac a4be 7098 8abe 5675 b0bb 2b7e 6c3c

enc1.1.conv3.weight f4 [16, 32, 1, 1]
-0.022629717 -0.11201888 -0.021929974 0.12891166 0.060135566 -0.09050694 0.01359219 -0.09452345
-0.054236986 -0.0019618936 -0.082946956 0.094507985 -0.03450457 -0.0788447 -0.16405858 0.0973238
0.09908243 0.07793477 -0.10455086 0.11573132 0.023646552 -0.106864005 0.17092386 -0.1328111
0.021043878 -0.12801345 -0.044803005 -0.12225452 -0.037468947 -0.011600098 -0.036049273 -0.0045018946
-0.1110464 0.12352449 -0.10909254 -0.027866632 0.17651138 -0.07476484 0.023903057 0.08225029
0.018769635 -0.15165022 -0.108681 -0.03654471 -0.07212032 -0.09185581 -0.10079971 0.12721312
0.12580432 0.13282952 0.15462326 0.14673476 -0.14175232 0.11814002 -0.1471896 0.061321955
0.099941514 -0.1410204 -0.042825054 0.08660376 -0.13530289 0.11437314 -0.025484134 -0.034409992
-0.105988175 -0.09108848 0.07381118 -0.15242976 -0.046524663 -0.127276 -0.08219748 0.13226503
-0.06694289 -0.08545956 0.045459423 0.053014245 0.030966848 0.01724097 -0.15302439 -0.05999214
-0.11558012 0.14591883 -0.15083607 -0.15431051 0.10024723 0.12143898 -0.04183216 -0.034870133
-0.031640694 0.05787719 -0.1741147 -0.14973342 -0.076614015 0.09187283 -0.09003477 -0.062159184
0.009417819 0.0042681904 0.09248565 -0.061242048 0.0793521 0.06761537 -0.051408008 0.10709021
-0.12817691 0.16379967 0.14518797 0.13287799 0.12019919 -0.07258661 0.12354708 0.16629706
0.17151144 -0.13591503 0.16089752 0.012232406 0.101213545 -0.15670392 0.11438947 -0.08081108
0.13685629 0.019343717 0.09975925 0.07270959 -0.026549542 0.11564693 -0.13798006 0.067872606
-0.13582355 0.076848224 -0.02438585 0.088774815 0.15924996 0.16551687 -0.14919302 0.16956902
0.13144203 -0.03171346 -0.10341688 0.15971062 -0.08297688 -0.09532251 -0.062258016 -0.063728735
-0.084132254 -0.13377458 -0.016881267 0.046231426 -0.10481489 -0.10741839 0.0446627 -0.16132374
0.12861751 -0.08828011 -0.08649776 0.07193274 -0.048506364 0.1496757 -0.08057021 -0.15333961
0.14458156 0.0383884 -0.15580891 -0.046097945 0.15298866 -0.10700389 0.014259754 0.018709008
0.0023198046 0.014142628 -0.07405045 -0.14551325 0.11948033 0.13343921 -0.059397217 -0.0769109
-0.044305503 0.16602457 0.15047687 0.060317323 0.14806558 0.1283719 0.02435797 -0.14104183
0.052346237 -0.023871342 -0.031163042 0.04016344 0.143082 -0.011324331 -0.083221376 0.087640405
0.15211369 -0.10221296 0.13944955 0.05159044 -0.13431703 0.096969426 0.10411605 -0.16441408
-0.17020549 -0.04430934 0.050350584 0.1759721 -0.11286087 0.07014245 0.14746688 0.07209781
0.13707784 -0.06682197 0.13839561 -0.10053246 0.048799537 0.051241588 -0.027083164 -0.09784498
0.116030544 -0.07880565 0.011559995 -0.030196825 -0.109147884 -0.04110127 -0.16711223 -0.04471148
-0.020728158 -0.07349696 -0.17514527 -0.12838078 -0.037041727 -0.15904206 0.16538021 0.09501265
0.06695419 -0.035549223 0.08836999 -0.018434674 0.092453495 -0.044606708 0.055559386 0.17344195
-0.15618686 -0.016297154 -0.040464513 0.10072161 -0.17396545 -0.08529917 -0.123792164 0.094725564
-0.14973222 -0.052681956 -0.055728544 0.11694406 0.06487083 0.0013481512 0.14439316 0.15317501
00000000: f561 b9bc 286a e5bd 7da6 b3bc 6b01 043e
00000010: b650 763d b45b b9bd c7b1 5e3c 8395 c1bd
00000020: 9a27 5ebd 1d93 00bb 18e0 a9bd 678d c13d
00000030: aa54 0dbd 5479 a1bd f9fe 27be b351 c73d
00000040: bbeb ca3d 449c 9f3d c31e d6bd 8b04 ed3d
00000050: 6ab6 c13c 84db dabd aa06 2f3e a2ff 07be
00000060: 3664 ac3c f515 03be 5b83 37bd 9460 fabd
00000070: 0a79 19bd 560e 3ebc 67a8 13bd a184 93bb
00000080: 4c6c e3bd 68fa fc3d e96b dfbd 9048 e4bc
00000090: 66bf 343e 4f1e 99bd 58d0 c33c d772 a83d
000000a0: c7c2 993c 324a 1bbe 2594 debd e8af 15bd
000000b0: d1b3 93bd e61e bcbd 1470 cebd 2844 023e
000000c0: d9d2 003e 7604 083e 8f55 1e3e a341 163e
000000d0: 8527 11be 65f3 f13d dfb8 16be bb2c 7b3d
000000e0: 23ae cc3d a767 10be 5369 2fbd 505d b13d
000000f0: d78c 0abe 773c ea3d 1ac4 d0bc 7ef1 0cbd
00000100: 5410 d9bd 998c babd 512a 973d 8c16 1cbe
00000110: a590 3ebd a454 02be 2757 a8bd 7c70 073e
00000120: 5b19 89bd 6c05 afbd a933 3a3d 7725 593d
00000130: 30ae fd3c ef3c 8d3c 6db2 1cbe 51ba 75bd
00000140: 45b5 ecbd bf6b 153e c574 1abe 9303 1ebe
00000150: 6b4e cd3d 00b5 f83d 3358 2bbd fcd3 0ebd
00000160: ac99 01bd a210 6d3d 204b 32be b853 19be
00000170: cfe7 9cbd d327 bc3d 2664 b8bd a19a 7ebd
00000180: 324d 1a3c 2ddc 8b3b 1e69 bd3d f1d8 7abd
00000190: 5b83 a23d ed79 8a3d 3491 52bd 1d52 db3d
000001a0: cf40 03be 1abb 273e 28ac 143e 2b11 083e
000001b0: fe2a f63d 4aa8 94bd 4006 fd3d c749 2a3e
000001c0: b2a0 2f3e 4f2d 0bbe 52c2 243e 6e6a 483c
000001d0: 0c49 cf3d fe76 20be 0745 ea3d 4880 a5bd
000001e0: 0e24 0c3e b776 9e3c 944e cc3d c4e8 943d
000001f0: 6d7e d9bc 4cd8 ec3d a54a 0dbe cb00 8b3d
00000200: 5415 0bbe 9a62 9d3d d6c4 c7bc 92cf b53d
00000210: 6c12 233e 417d 293e 0ec6 18be 80a3 2d3e
00000220: bd98 063e f9e5 01bd 3bcc d3bd 2e8b 233e
00000230: c8ef a9bd 7338 c3bd 4302 7fbd 3684 82bd
00000240: 884d acbd 34fc 08be 954a 8abc 2a5d 3d3d
00000250: 30a9 d6bd 2cfe dbbd 3cf0 363d 0d32 25be
00000260: 4fb4 033e 34cc b4bd bd25 b1bd 7951 933d
00000270: 9cae 46bd 9644 193e ff01 a5bd 0f05 1dbe
00000280: 300d 143e 283d 1d3d 5f8c 1fbe 33d1 3cbd
00000290: 0fa9 1c3e db24 dbbd bea1 693c a243 993c
000002a0: dd07 183b 7bb6 673c c3a7 97bd 6d01 15be
000002b0: 1ab2 f43d 4aa4 083e 7f4a 73bd 7683 9dbd
000002c0: b079 35bd 5802 2a3e 9c16 1a3e 4c0f 773d
000002d0: 819e 173e ec73 033e 5e8a c73c 456d 10be
000002e0: 0269 563d d58d c3bc a349 ffbc 6b82 243d
000002f0: 1684 123e b089 39bc f86f aabd d07c b33d
00000300: b1c3 1b3e 0755 d1bd ddcb 0e3e 7f50 533d
00000310: 678a 09be e897 c63d cc3a d53d 2a5c 28be
00000320: 594a 2ebe b67d 35bd 6a3c 4e3d 0832 343e
00000330: 9a23 e7bd d8a6 8f3d 8f01 173e 04a8 933d
00000340: 225e 0c3e f5d9 88bd 94b7 0d3e f6e3 cdbd
00000350: 06e2 473d b3e2 513d 83dd ddbc f362 c8bd
00000360: 6ca1 ed3d db64 a1bd 2266 3d3c 555f f7bc
00000370: ed88 dfbd ce59 28bd 781f 2bbe 6323 37bd
00000380: 19ce a9bc 9385 96bd 4859 33be 4076 03be
00000390: 11b9 17bd ecdb 22be 6e59 293e fe95 c23d
000003a0: 471f 893d 109c 11bd 53fb b43d 5004 97bc
000003b0: 4258 bd3d 86b5 36bd 3d92 633d c49a 313e
000003c0: 73ef 1fbe 9c81 85bc 1ebe 25bd 2247 ce3d
000003d0: 0024 32be 55b1 aebd bf86 fdbd 7aff c13d
000003e0: 6753 19be 09c9 57bd 9d43 64bd 5e80 ef3d
000003f0: ffda 843d 73b4 b03a cddb 133e e9d9 1c3e

enc1.1.conv3.bias f4 [16]
-0.15386145 0.0039224806 -0.05871229 -0.10619286 0.16927369 -0.12861055 0.013860223 -0.07937859
0.16660705 -0.09500618 -0.03710758 -0.090496175 -0.14921917 -0.026457725 0.14241622 -0.17013034
00000000: db8d 1dbe 2788 803b 4c7c 70bd a47b d9bd
00000010: 1556 2d3e 7cb2 03be fd15 633c 3e91 a2bd
00000020: 0a9b 2a3e 9a92 c2bd 1efe 17bd 0f56 b9bd
00000030: e9cc 18be dfbd d8bc 8fd5 113e a636 2ebe
