net/LAnet_1.onnx (onnx, 825664 bytes, 143 tensors)

conv0.conv.weight f4 [16, 2, 3, 3]
00000000: 9290 d0bd 2543 a33d 5f28 d73d 0926 73bd
00000010: 41a6 1a3d a7ec 013e 00a0 debd 5199 b03c
00000020: 7aca 883d 7144 3bbc c818 a9bd 6543 3a3d
00000030: 94d4 9ebc bdcd 6cbd 1f7c a53d 766a ab3b
00000040: 5cbf 7cbd bdce 213d d494 7e3d 9585 3f3e
00000050: 94e8 a83d b1b2 9f3c e245 fd3e e2f2 733e
00000060: 6b47 5c3d fafd e13e 0ee2 513e 06ad 06bd
00000070: 4f73 3cbd e6d5 7cbd 0e9c 07bd 8812 c9bd
00000080: 3b7c 0ebe b9f6 acbd 6e1f 9dbd ecd7 babd
00000090: 8df5 5ebd 1b0a 363e d7fe 1abe 099d d23c
000000a0: 1c7e c23e a8b2 0abd 121d 72bd 582e 153e
000000b0: 2505 babd ec08 f4ba 4920 09be 5d45 7bbd
000000c0: 1da1 453d 3dba 34bd 2680 efbc a6a6 0b3e
000000d0: 8a39 ff3d b318 8f3d 841c 10be a069 8e3d
000000e0: b846 e23b 9eab d83d 73c2 193e d040 68bd
000000f0: f631 af3d 61dc 0d3b e30b 25be bc73 043e
00000100: fa59 8d3e 0bb9 803d f75e ad3c 25af fd3d
00000110: 7aec 41bd 0a46 94bc bc06 cfbc 41a9 d0bd
00000120: c4f5 35be 31ae 3fbe 8d1b 0ebe da56 fcbd
00000130: fb54 da3d 8b9b 463e fdab b6bd 2d31 3abd
00000140: 0b8a ca3d ee44 d03d 274e 3e3e ce56 953d
00000150: c910 b43d 8af0 213e 5b68 853d 5910 ba3d
00000160: 1914 d83d 6ea8 163d 4d14 823e 81aa 333d
00000170: 9558 f1bd 5b4c 1d3d b005 3cbe 987f 023e
00000180: f6fb 9bbe 3d53 ec3e 5b52 6cbe 429a 4cbd
00000190: ebaf 0ebe 3949 63bd f770 a53e 9d8d 1f3e
000001a0: c987 74bc 8e91 31bf 5572 d93e 6934 08be
000001b0: 9786 13bd 9cbe 803d b7e7 a6bd e37d 57bd
000001c0: 315f 533e 72e2 84bd 9956 1ebe 0bc2 173e
000001d0: 40b1 f3bd 011e 3e3c a67f ab3c c30f 993b
000001e0: 3094 233d a838 d43d 233f 713b 9298 3a3d
000001f0: ae6e 203e 1b8b 493d 29cd 6f3e e393 fa3d
00000200: 9bc8 e03d 91b4 993e cb39 263e 5fab 943d
00000210: cf35 35be 4bc2 fabd 0e2e 69be ee0d 5cbc
00000220: 93be 833c 5354 ef3c b4cd b4bd e091 17bd
00000230: cde5 0cbc f031 35bd b6ee 5dbd 367a e13c
00000240: c100 8f3d c8de c03d 7e40 6a39 4619 303e
00000250: 291a d33e 332d 2c3e e7bf 033e b104 5b3e
00000260: 638e 033e c618 8f3c d9a8 743d 593c 363d
00000270: 1092 aa3c faae eebe d964 f63d a1d4 053e
00000280: c323 b93e 4862 083e 081a b9bd f1dd d43d
00000290: 9d02 39bd e5a0 a23b 6006 973e 1cec c63e
000002a0: d7da 6abe 4c05 73be 6a34 20bc 3448 a2bc
000002b0: 5bf3 573c ecea b2ba a311 3ebd 84b8 533b
000002c0: 6ea8 c6bd 59d0 82bc d1b8 5b3e d8df 253c
000002d0: 814d afbd 9477 7f3c 8cbe 41be 8c02 3e3c
000002e0: 7284 1f3f 6c79 543e d0e0 0ebe f747 bb3e
000002f0: 50ce a3bd f7f0 a03c 5dbe 00bd a3c9 283d
00000300: aa35 9c3d 7ee3 16be c18d 023e 0a87 c1bc
00000310: 1036 f4bd d1cc 0dbd bfd9 06be b369 47be
00000320: 7956 01be 1036 363e f59c 9cbb e696 653d
00000330: 821f 613e e07d 853d 998d 95ba e80c 68bd
00000340: 6f6a d1bc 9258 18bc a7d6 cd3c e0be 393e
00000350: 0e09 363e f135 aabd b7de 02bd efbc 973d
00000360: 865d ff3d cdbe 47bd 9f75 59be 5d9c 143e
00000370: e708 663d 3edd 6dbe 2bad 15bd b28a bb3d
00000380: 1561 a43d 5071 0bbd 891c 9c3c 89b9 9cba
00000390: 6823 563d c233 863e 38ad fb3d b672 13bd
000003a0: df93 9c3d 8bf0 d53d 6436 d5bd fd9e cc3d
000003b0: d168 513d 5b86 b93d 338d 913e fcda c23d
000003c0: 2f6c 4dbe e4cf 0cbe 46ae 12be 1779 59bb
000003d0: 5bc5 ebbd 5b7b 573d 93e7 be3d 9011 63bc
000003e0: cc40 3f3e d9c9 b83d 066a 993d 2c3d 643e
000003f0: 385d c439 2d21 80bd 9097 4cbd 95c8 85bd
-0.101838246 0.07971791 0.10505747 -0.059362445 0.03775621 0.12687932 -0.10870361 0.021557482
0.06679244 -0.011429892 -0.0825668 0.04547443 -0.019388475 -0.057813395 0.08080315 0.005231197
-0.061705932 0.0395038 0.062153652 0.18703301 0.08247486 0.019494386 0.4946738 0.23823121
0.053779047 0.4413908 0.2049639 -0.03287985 -0.046008404 -0.061727427 -0.03310781 -0.09817988
-0.13914578 -0.08445496 -0.0767201 -0.09123215 -0.054433394 0.17777292 -0.15136276 0.025709646
0.3798684 -0.033861786 -0.059109755 0.1456846 -0.090830125 -0.0018618382 -0.13391222 -0.061345447
0.048249353 -0.044122923 -0.02923591 0.1363779 0.124621466 0.06987133 -0.14073378 0.0695374
0.006905403 0.105796084 0.15015583 -0.056702435 0.08554451 0.0021646249 -0.16117816 0.12934774
0.2760771 0.06285294 0.021163447 0.12386922 -0.047344662 -0.018099803 -0.025271766 -0.101885326
-0.17769533 -0.18718792 -0.13877697 -0.12321253 0.1066074 0.19395272 -0.08919523 -0.045457054
0.09889611 0.10169397 0.185845 0.07291947 0.08792264 0.15814415 0.06514045 0.09085149
0.10550708 0.03678172 0.25406113 0.043863777 -0.11784474 0.038402896 -0.18361545 0.12743986
-0.30465668 0.46157256 -0.23078291 -0.0499518 -0.13934295 -0.055489752 0.32312748 0.15581365
-0.014924952 -0.69362724 0.4247004 -0.13301243 -0.036017027 0.06286356 -0.08149665 -0.05261029
0.20641781 -0.064885035 -0.15462722 0.14820115 -0.11899042 0.011603833 0.020934891 0.0046710684
0.039936244 0.10362369 0.0036811314 0.04555566 0.15667221 0.049204927 0.23418106 0.122352384
0.109757625 0.30020574 0.16232984 0.07259249 -0.17696308 -0.1224409 -0.22771475 -0.0134310555
0.016082084 0.029215014 -0.08828297 -0.03700435 -0.008599711 -0.044237077 -0.05418273 0.027524095
0.06982566 0.09417492 0.00022340004 0.17197141 0.41230896 0.16814117 0.12866174 0.21388508
0.12847285 0.017467868 0.05973134 0.044491146 0.020821601 -0.46617872 0.12030954 0.13069393
0.36160097 0.13318741 -0.09038168 0.103938945 -0.045168508 0.004963028 0.2949705 0.38852012
-0.22935043 -0.2373249 -0.0097781215 -0.01980982 0.013180579 -0.0013650334 -0.04640354 0.0032306025
-0.09700094 -0.015968489 0.2145722 0.010124169 -0.085597046 0.0155924745 -0.18920344 0.011597287
0.6231147 0.20749444 -0.13952947 0.36578342 -0.07998335 0.019646151 -0.031431545 0.04120792
0.07627423 -0.14735219 0.12749387 -0.023623962 -0.11924374 -0.034619156 -0.13169001 -0.19473915
-0.12630643 0.1779406 -0.004779453 0.05605211 0.21984676 0.065181494 -0.0011409997 -0.056652933
-0.025563447 -0.009298461 0.025126768 0.1813922 0.17776892 -0.0831107 -0.03195068 0.07409083
0.1246901 -0.048765946 -0.21236275 0.14512773 0.056160834 -0.23228928 -0.0365421 0.091573134
0.080263294 -0.03404361 0.019056575 -0.0011957149 0.05227986 0.26211363 0.12288898 -0.03599807
0.07645392 0.104462706 -0.10410765 0.09991262 0.05112535 0.090588294 0.2842804 0.09514424
-0.200608 -0.13751179 -0.14324293 -0.0033183747 -0.11512252 0.052607875 0.09321513 -0.013859168
0.18677062 0.090228744 0.074909255 0.2228896 0.00037453487 -0.06256328 -0.04994923 -0.065323986

conv0.conv.bias f4 [16]
00000000: f882 f240 4f29 fa3f 5656 de40 e875 1841
00000010: 0616 4440 943b 613f 9881 2c41 5a14 dd40
00000020: 4dac a141 7ebe 1841 6e47 0241 d8b5 0241
00000030: 4848 8c40 b608 0040 20fc 0440 3de3 ca40
7.5784874 1.9543856 6.948039 9.528786 3.0638442 0.87981534 10.781639 6.9087343
20.209131 9.546507 8.142439 8.169395 4.3838234 2.0005317 2.0778885 6.340239

enc1.0.conv1.depthwise.weight f4 [16, 1, 5, 5]
00000000: 4a2e b5bc 5be0 cbbd 791c 173e d31d 30be
00000010: ec94 a23e 7ba7 833e 844a e2bc 9071 a13d
00000020: fe34 1ebf c688 bd3c 5690 ff3d 47cc ef3e
00000030: 969e 073f 96d3 10be 5552 073d b3af a8be
00000040: 18e0 7c3e 10b5 d33e 93fa 98bd 1b73 0b3e
00000050: 05d4 abbe 6979 96be 9a4c 4a3d 8a4c 75be
00000060: dfec 5cbd bc02 f5bc eec8 9d3e 3829 d3bc
00000070: e611 2a3d 9c2c 1d3e 24ba 68be ea4a e8be
00000080: cfdf e2be 30cb 82be 9e13 62be ae00 b23c
00000090: ed27 8ebe 8b56 75bc 1476 37bd 94d1 773d
000000a0: fc59 e43d 09c1 973e 58bf 433e c2ea c63e
000000b0: 0c32 653e 42c4 69bc 7229 003e 0f75 2c3e
000000c0: b1fd 883d 19c0 c8be 072c 5ebd 9a91 ffbe
000000d0: c6cb 1fbd 6dc8 103e 7fe8 dabc 87e6 fd3c
000000e0: d151 90be e4c4 143e b319 3b3e fb9b 063f
000000f0: c23e 99bd 06fb 98be 2b82 e7bd e7f4 f5bd
00000100: 0a59 cc3d 87a9 0bbe 2d7d fc3d 85f5 433e
00000110: 46fe 2c3e 861b c63e 4a59 3f3e 3b52 04bf
00000120: 01f9 b2bd 3a1d 68be b9cf bf3e d2a8 b63d
00000130: f1ab 3ebe efa4 03be 3707 95be ac4a 943d
00000140: b704 63be 66a8 813e d227 533e ee21 50be
00000150: 3291 aebe 3106 bebd ef58 ba3e 7e84 943d
00000160: 4386 133d 76c4 debd ec0f 01bc 9738 793e
00000170: 639a 2abd 2d1e fdbd 2c05 32be 1e03 98bd
00000180: f7a7 2b3e a33a 503e 812d 263e 0dbd 093e
00000190: b7e7 38be 257d cdbc 5363 94bb 4218 83be
000001a0: 58b3 793e 0bf4 9f3e d0c1 d93e d74a fd3c
000001b0: eafc 993d c6a4 593e 3b9b 57be 53e1 7d3e
000001c0: 0c7f a9be 44ef 11bf 0ac3 90be 82ed 56bd
000001d0: 8941 823c 7645 99be 0810 cabd fdd8 953c
000001e0: 8c84 eabc e45f 8d3d efe9 dabd 797d 443e
000001f0: 96f0 ab3d a530 01be d75e 82be 8a7d 04be
00000200: 10eb 05be a9fe 03be 1de2 63be 8677 c7be
00000210: 3c93 0bbe e7df 94be 417f a1be 243d 49be
00000220: 973e c7be 599b 1dbe 14b2 8fbe 3691 afbe
00000230: 7e89 03be 28d2 dcbe 5656 92be 6d18 66be
00000240: 936b 9cbe 1088 5bbd 610c 2dbe 50c0 0fbe
00000250: 0fff 52be 2f00 50be 062d ac3e f81d 97be
00000260: 6fee 45be 1148 1ebe 829b 4c3e 9a99 58be
00000270: e762 adbe 7203 c8bd d150 82be a21b b03c
00000280: dea2 d4bd edaf 473e 6940 833d d0c0 143b
00000290: bd94 a9bd d606 18bd 1d99 943e ae68 723e
000002a0: 148d 6b3e 2f47 7e3e 9fd6 88bd 6bb3 94bd
000002b0: c98e 253d ec24 2dbe e3b7 683e 8f8e 25bd
000002c0: 5b2a 56be cf4f 453d b7ac 4d3c bff0 423e
000002d0: 5361 38bd 844b 4cbe fd0c 81be 5f50 19be
000002e0: c8ab 8b3e fbc5 8bbe f1f8 4abc f547 5fbe
000002f0: e6ab 53be 6108 423d 70bf a73e bd3f e93e
00000300: 84e2 0a3e 31fa 243e 3101 763e 28d8 08be
00000310: d417 393e 698b e0bd 1bf4 02bd 7c7b 9abe
00000320: 01f7 003e b554 523e ce8b 903e 0901 093e
00000330: 5735 543e fc39 65be aaf4 86be 8e18 05be
00000340: e81d dabe b974 11be 9c68 8d3c 226e ae3d
00000350: baeb e03d dd51 67bc ccec d33d 4df9 c53d
00000360: f747 7c3d 435e 973e 47b5 8b3e 759e e13c
00000370: 091a 3abe 0433 55be 5ddb 38be 88bc 05be
00000380: ec62 e6bd b089 92be fb00 8abe d805 cebe
00000390: 55b7 f2be 76b4 1ebe 3cd8 4d3e aba9 023e
000003a0: 8ae5 353c 2188 133f 9bdd a53e 796e 093e
000003b0: 3830 1bbe a70a acbd 949c 51be e9c6 6abe
000003c0: 919f 09bd be01 8dbd 65e6 0e3e 5da7 a73d
000003d0: 3101 73be b6f0 74bc 5b0b 8e3e 1af8 8c3e
000003e0: ea2d 0d3e 3a47 ad3d d49a 16be 6471 923d
000003f0: fc85 533e 2ccb 06bd f7eb 95be f7c2 673d
-0.022116799 -0.09954902 0.14756955 -0.17198877 0.31754243 0.25713715 -0.027623422 0.078829885
-0.6179961 0.023136508 0.12478702 0.4683554 0.5297636 -0.14143214 0.033037502 -0.32946548
0.2469486 0.41349077 -0.07469668 0.13618128 -0.33560196 -0.29389504 0.04938946 -0.23954979
-0.053936835 -0.02990853 0.3081736 -0.02577649 0.041520976 0.15349048 -0.22727257 -0.45369655
-0.44311377 -0.25545645 -0.22077796 0.02172884 -0.27764836 -0.014974247 -0.044790342 0.060502604
0.11149976 0.29639462 0.1911596 0.3885098 0.22382373 -0.014267983 0.1251581 0.1684153
0.06689013 -0.3920906 -0.054241206 -0.49915773 -0.039012693 0.14138956 -0.02672219 0.030993713
-0.2818742 0.14528233 0.18271522 0.5258176 -0.07482673 -0.29879016 -0.113041244 -0.12009602
0.0997792 -0.13638888 0.12328563 0.19136627 0.16893873 0.38692874 0.18686405 -0.51687974
-0.087389 -0.22667399 0.37463167 0.08918919 -0.18620278 -0.12855886 -0.29107067 0.07240805
-0.22169767 0.2532379 0.20620659 -0.20325443 -0.3409515 -0.09278525 0.36395976 0.072518334
0.036016714 -0.10877316 -0.007877331 0.24337994 -0.04165114 -0.12359271 -0.17384785 -0.074224696
0.16763292 0.20334868 0.16228296 0.13451023 -0.18057142 -0.025084088 -0.004528442 -0.25604445
0.2438482 0.31240878 0.4253068 0.030919475 0.07518943 0.21254262 -0.2105531 0.24792986
-0.33104742 -0.57005715 -0.28273803 -0.0524726 0.01590039 -0.29935807 -0.09866339 0.018291945
-0.028627656 0.06903055 -0.106891505 0.19188489 0.083954975 -0.12616213 -0.25462982 -0.12938514
-0.1307795 -0.12890114 -0.22254224 -0.38958377 -0.13630384 -0.29077074 -0.315424 -0.1965223
-0.3891494 -0.15391292 -0.2806555 -0.34290475 -0.12845418 -0.43129086 -0.28581494 -0.22470255
-0.30550823 -0.053596556 -0.16899253 -0.14038205 -0.2060511 -0.2031257 0.336281 -0.29515052
-0.19329236 -0.15457179 0.19981197 -0.21152344 -0.3386452 -0.09766282 -0.25452283 0.021497551
-0.10382627 0.19500704 0.0640877 0.0022697933 -0.08280323 -0.037115894 0.29023066 0.23672745
0.23003036 0.24831842 -0.06681561 -0.07260784 0.040419374 -0.16908616 0.22726397 -0.040419158
-0.20914595 0.048171815 0.012553385 0.1903715 -0.04501469 -0.19950682 -0.25205222 -0.14972065
0.27279496 -0.27299485 -0.012388454 -0.21804793 -0.20671043 0.047371272 0.32763243 0.4555644
0.13562971 0.16111065 0.24023892 -0.13363707 0.18075496 -0.109640904 -0.03197108 -0.30172336
0.12594225 0.20540126 0.28231663 0.13379301 0.20723473 -0.223854 -0.2635854 -0.12997648
-0.42600942 -0.14204682 0.017261796 0.085171 0.10982461 -0.014118639 0.103479 0.09666691
0.06159207 0.29564103 0.2728674 0.027541379 -0.18173994 -0.20820242 -0.1805243 -0.130602
-0.112493366 -0.28620672 -0.26953873 -0.40238833 -0.47405496 -0.15498528 0.20102018 0.12760036
0.01110209 0.5762959 0.32395634 0.13421048 -0.15155113 -0.08400469 -0.20469886 -0.2292744
-0.03359944 -0.06885098 0.13955076 0.08186219 -0.23730923 -0.014949968 0.2774304 0.27533036
0.13787046 0.08460851 -0.147075 0.07150534 0.2065658 -0.032908604 -0.2928159 0.056582417

enc1.0.conv1.pointwise.weight f4 [4, 16, 1, 1]
00000000: 7d0f d03c 2a5b e63d 5cfa 66bd cf2f de3d
00000010: eef7 c5bd 3966 343d 6609 143e ba95 9d3d
00000020: 96a8 5b3d 554a d83d 8473 b9bc 8622 7dbc
00000030: a9d2 91bd 0e30 cabc f144 aebb ffaa f6ba
00000040: 0f63 2b3d 208e f13c dbd0 b8bb 9114 983b
00000050: a974 58bc d553 e0be c562 b93c 9403 353c
00000060: f151 4fbc 744c e5bc 70ea 9bbb 2b46 7cbc
00000070: c392 13bc c6b6 003c 8334 d3b7 2152 3bbc
00000080: cf38 06be 3031 513d e056 efbd c7be c1bc
00000090: 3a0f 0ebe 7709 64bc 4655 55be aa92 1c3e
000000a0: d4df cc3d 57c6 2c3e 16f9 1f3e 3245 1f3e
000000b0: 1e67 813e 8db1 b93d 6354 b33b c3d9 8a3c
000000c0: 6181 53be 94c7 1b3e 0782 d63c b2c1 42b8
000000d0: da26 8a3c 98ea 563e 88fe 4bbd de5b 58be
000000e0: 161e 323e b440 e83c 833f 83bd d8fa d03d
000000f0: 2105 bfbd 6c2c 373e a7ca bdbb 5b9c 193e
0.02539801 0.11247857 -0.056391105 0.108489625 -0.096664295 0.0440428 0.1445671 0.07694574
0.053627573 0.10561053 -0.02263809 -0.015450126 -0.07120258 -0.024681117 -0.005318277 -0.0018819271
0.041842517 0.029486716 -0.005640132 0.0046411236 -0.013211408 -0.4381396 0.022630105 0.011048216
-0.012653814 -0.027990557 -0.0047581717 -0.015397589 -0.009007159 0.007856077 -2.5177613e-05 -0.011433155
-0.13107608 0.0510723 -0.11686492 -0.02365054 -0.13872996 -0.013918272 -0.2083331 0.15290323
0.10003629 0.16872536 0.15622362 0.1555374 0.25273985 0.09067068 0.005472706 0.01694954
-0.20654823 0.15212852 0.026185049 -4.6433597e-05 0.016864229 0.20987928 -0.049803287 -0.21128795
0.1739429 0.028351165 -0.06408598 0.10204095 -0.0932715 0.1788804 -0.0057919803 0.15001051

enc1.0.conv1.pointwise.bias f4 [4]
00000000: 9847 3d3f b4e8 293f 7bff e83f b19f d83f
0.7393737 0.663707 1.8202966 1.6923734

enc1.0.conv2.depthwise.weight f4 [4, 1, 5, 5]
00000000: cd77 fe3b eb0a bb3c 1742 b2bc 0061 143d
00000010: e189 89bc 70ff 73bb bb6c 08be 9210 853e
00000020: a022 d9bd 254a 54bc 1d00 103d 0c9c 983d
00000030: 4bff 0d3f c9e2 9b3e fa12 6f3d 3b35 17bc
00000040: ea69 24bc 658c a4bd c736 3e3e b83d afbc
00000050: 5f50 323c b080 343d 96aa e23b 9eca 0b3d
00000060: 6901 38bc 2b67 70bd dc77 44bd ae0e f7bd
00000070: 50f6 c0bd 5e7b 47bc 58dc 2fbd 488c f9bc
00000080: e682 2dbe 17d9 d7bd 3c84 a9bd fa79 f3bd
00000090: 2f60 74bd fbf4 49be b936 f4bd e09e 29be
000000a0: 90fe a9bc 2b0e 64bd a0d1 c4bd b8d6 e7bd
000000b0: fff5 1ebc 4d62 54bd 5a45 8ebd d6c1 93bd
000000c0: 2b07 aabd 71c3 13bd 75f7 9c3c 30ee 3c3d
000000d0: 856a 8fbd 9d58 333d c11a 2f3d 517c 69bd
000000e0: 576a 6cbd 130c 7fbe 032b a6bd 5616 ccbc
000000f0: b511 6a3d 35c7 533e dc8c 55bf a4ca 083b
00000100: 9409 6f3d 9588 bdbc 7858 3bbd cb30 053f
00000110: a5df 87bd a6a8 03bd 2633 fa3c 030c 083d
00000120: 34f4 d83d c5fe a0bd cc18 373d 377a 11be
00000130: 1a11 a13d 984b 313d 3533 743d 9741 1abd
00000140: 512e e53b a864 d0bd f2ee 98bd 8f98 dabd
00000150: a38b 843d ef5c d43c 9a71 39be 03a6 9abe
00000160: 0f02 fbbe 9fdf ce3a 0162 703b 1013 7c3d
00000170: 68b7 a93c e2ed dd3e e14c cdbd 0872 953c
00000180: 2edf 4e3d 2704 0d3e 691e 49bd 6aa1 953d
0.007765746 0.022832355 -0.02176003 0.03622532 -0.016789379 -0.003723111 -0.13322727 0.25989205
-0.10602307 -0.012957131 0.035156358 0.074516386 0.5546767 0.3044646 0.058367707 -0.009229
-0.0100350175 -0.08034591 0.18575583 -0.021391734 0.01088342 0.04406804 0.006917308 0.034128778
-0.011230805 -0.05869214 -0.04796587 -0.12063347 -0.094219804 -0.012175409 -0.042934746 -0.0304624
-0.16944465 -0.105394535 -0.08277175 -0.118884996 -0.05966204 -0.19722359 -0.119245 -0.16564512
-0.020751268 -0.055677574 -0.09610295 -0.11320251 -0.009702205 -0.05185156 -0.069468215 -0.07214706
-0.083021484 -0.03607506 0.019160965 0.04612559 -0.07002739 0.04378568 0.042750124 -0.057003323
-0.0577186 -0.2490695 -0.081136726 -0.024912994 0.057145793 0.2068146 -0.8341806 0.0020872736
0.058358744 -0.023136416 -0.045738667 0.5202758 -0.06634454 -0.032143258 0.030541968 0.03321458
0.10593453 -0.078610934 0.044701383 -0.14206778 0.0786459 0.043284982 0.059619147 -0.037660208
0.0069940467 -0.10175449 -0.0746745 -0.106736295 0.06471946 0.02592322 -0.18109742 -0.30204782
-0.49025008 0.0015783197 0.0036679509 0.061541617 0.020717338 0.43345553 -0.10024429 0.01824285
0.05050581 0.13771115 -0.049101267 0.07306178

enc1.0.conv2.pointwise.weight f4 [16, 4, 1, 1]
00000000: e593 c63e f619 94be 05f1 fc3e 78f0 21bd
00000010: 84c1 69bf 8875 a4bb a623 d1bd 568d 46bf
00000020: 0282 fc3d fd89 0fbe 5dbf 9abd f491 a03d
00000030: a67d 963e 2e5d 93be 9281 05bf 9754 ca3d
00000040: bc4c 323e 9cc5 21bc f8fd 9bbd d3f4 583c
00000050: 9c25 a73d 6af2 40bb b150 7abd a3fb 9c3d
00000060: 8cb7 62be cb39 2dbf 547d 683e bc91 223e
00000070: 0554 d33e d10c d8bd a204 a73d eca1 4bbe
00000080: 1ab4 4f3f b8b8 06bf db2b 15be 49a0 5f3e
00000090: 3a9b 783f a7fb 54be 72bd 1fbd 51b0 ddbc
000000a0: cf2d f53d 9c74 673c 1b8f f3bd a2df 433d
000000b0: ce4b cd3e 8369 81be 172e 96be 388b 6a3d
000000c0: 77e4 993f b229 da3c 3e50 d83d 2f9c 70bf
000000d0: 73bc 593d 20aa 34be c0b2 75be a65d b53e
000000e0: 8a03 81be 8120 debd 2e79 02bd 905a 04bd
000000f0: 5d82 fd3e 47a4 5bbe c6f0 87bd 7173 0fbe
0.3878471 -0.28926057 0.49402633 -0.03953597 -0.91310906 -0.0050188936 -0.102118775 -0.7755941
0.123294845 -0.14017482 -0.07556031 0.07840338 0.29392737 -0.28782028 -0.52150834 0.098794155
0.17412084 -0.009873774 -0.076168 0.013241964 0.0816147 -0.0029441365 -0.06111211 0.076651834
-0.2214033 -0.6766631 0.22704059 0.15875906 0.4127504 -0.105493195 0.081551805 -0.19885987
0.8113419 -0.5262561 -0.14567511 0.21838488 0.97111857 -0.20799123 -0.03899903 -0.027061613
0.11971628 0.014126923 -0.118925296 0.047820695 0.40096897 -0.25275812 -0.2933204 0.057261676
1.2022847 0.02663121 0.1056218 -0.9398832 0.053158235 -0.17643023 -0.23993969 0.3542301
-0.25198013 -0.108460434 -0.031853847 -0.03231293 0.49513522 -0.21449386 -0.06637721 -0.14008881

enc1.0.conv2.pointwise.bias f4 [16]
00000000: f2cf 9040 8830 0cc0 ad86 c3bf 0b1c 3cbe
00000010: 43f7 863f 4042 f93f 1db5 663f f00b ae3f
00000020: 54c6 5440 d8ef c43e 174d 4bbf c43c 363f
00000030: cdb3 fbbe 702f 32c0 9ba0 1740 a306 073f
4.525384 -2.190462 -1.5275475 -0.18370073 1.0544208 1.9473343 0.90120107 1.3597393
3.324605 0.38464236 -0.79414505 0.7118647 -0.49160615 -2.7841454 2.3691776 0.527445

enc1.0.proj.depthwise.weight f4 [16, 1, 3, 3]
00000000: 5faa bcbc 14cb 293e f897 0e3e 4c17 1cbe
00000010: 0358 b33d 715d 443e 117f 9dbd 185e febd
00000020: 0288 693d 1e7e 51bd e8d7 75bd 4b9c f13c
00000030: 7289 82bd 4a2a c1be f08b 31be dfb0 653b
00000040: 031b 11be 6945 67bd 5ba7 93bd e82e 5dbe
00000050: 2f3e 9bbc 18f0 47be 7c53 dcbd 5278 e23d
00000060: 9cec 89bd ffa3 8d3e a133 9d3e 23cc fbbb
00000070: 6344 4e3e d3ec 353c ab3d 903d 9bae 9d3e
00000080: 106e 53bd b3e4 37bd 6ef4 babd 6645 61be
00000090: 3133 6cbb 744c ac3d 6055 19bc 37ca 593d
000000a0: 6118 a73d 68b0 f13d 561b c3bc c35e b6be
000000b0: 5a69 01be f151 433b ad05 02bd 5578 5fbd
000000c0: 5637 9a3b 3f22 5dbd 6947 85bd 0b2d 01ba
000000d0: fceb 0dbd 8016 f0bc edf0 6e3d 3eed 03be
000000e0: ad88 243e 2a21 51be 5e25 2cbf 058a 92bd
000000f0: e802 aa3e 33d3 fdbc 9840 b33e 7c64 4abc
00000100: 2895 9d3e df77 ce3d df88 573d ad0a 8a3e
00000110: 05f6 acbd b945 1dbb da66 49bd f2c5 73be
00000120: 7f2f 903d f682 d23d 49d5 4dbc 97b6 89bd
00000130: 947e 3dbd e9d0 95be af4a b03d e38e 2e3e
00000140: b434 aaba 39fc 30bd c312 e2bd 2bee db3c
00000150: 85fa 473e d887 1fbe 3551 50be af78 8e3e
00000160: 045b 753d 757d 57bc 35cd cebd 999f a1be
00000170: bfba 16be 0640 e7bb fc75 82be b828 11be
00000180: d4fc 843e a8f7 f13e 91ba 973e de87 cf3d
00000190: 5fe1 a8bd 9b0d cebd f616 8d3e ca1d 80be
000001a0: 56f7 85be b2ff 563e 3903 efbd 014d 3cbd
000001b0: fe7b 323e c271 61bd 7e3d b43c 5d4a 7b3e
000001c0: 89a2 14be 735d debe f227 fb3d 4bff 813e
000001d0: e788 a3bd 97b0 583c 3b31 b73d 6c67 073e
000001e0: d47e e3bd ae4f 3bbd 6d9a 8bbc 6bc2 00be
000001f0: ed6b 8bbe 57fe 26bc ca8a 4bbd e7df b3bd
00000200: b2f6 9ebd dbf7 23be b9eb 83be ed91 30be
00000210: 3282 11bd 02f6 23be 931d a0bd 02b6 fbbd
00000220: c0bf 2bbe ea32 453d af27 c23a 815c 08be
00000230: 63a8 9c3e 1eea ee3c fb51 bbbd 44a3 e73d
-0.023030458 0.16581374 0.13925159 -0.15243262 0.08757021 0.1917627 -0.076902516 -0.12420291
0.057014473 -0.051145665 -0.060020357 0.029493472 -0.06373872 -0.37727576 -0.17338538 0.003504805
-0.1417046 -0.05646268 -0.07209655 -0.21599925 -0.01895055 -0.19525182 -0.10758111 0.110581055
-0.06734583 0.27664182 0.30703452 -0.007684247 0.20143275 0.011103827 0.07043012 0.30797276
-0.051618636 -0.04489584 -0.091286525 -0.2199913 -0.0036041255 0.0841302 -0.009358734 0.053171363
0.08158947 0.11801225 -0.023816746 -0.35619172 -0.12637845 0.002980348 -0.031743694 -0.054558117
0.0047063036 -0.053987738 -0.06507761 -0.00049276714 -0.03464888 -0.029307604 0.058335233 -0.1288347
0.16067763 -0.20422807 -0.6724452 -0.071552314 0.33205342 -0.030984497 0.3501022 -0.012353059
0.3077786 0.10081457 0.052620765 0.2696127 -0.08445362 -0.0023997857 -0.049170353 -0.23805979
0.07040309 0.10278885 -0.012563058 -0.067242794 -0.046263292 -0.29260948 0.08607995 0.17046694
-0.0012985677 -0.04320929 -0.11038735 0.026846966 0.1952916 -0.15579164 -0.20343478 0.2782645
0.059901252 -0.01315247 -0.10097734 -0.31567076 -0.14719675 -0.0070571927 -0.2548064 -0.14175689
0.25974143 0.4725926 0.29634526 0.101333365 -0.08246111 -0.10061189 0.2755658 -0.25022727
-0.26165265 0.20995978 -0.116705365 -0.045971874 0.17430112 -0.05504013 0.022001978 0.24540086
-0.14515127 -0.4343067 0.12263478 0.25390086 -0.079850964 0.013225696 0.08944937 0.13223046
-0.11108175 -0.045730285 -0.01704141 -0.12574165 -0.27230778 -0.010192475 -0.049692906 -0.0878294
-0.07761897 -0.16012518 -0.2576578 -0.17243166 -0.035524555 -0.16011813 -0.07818141 -0.122905746
-0.16772366 0.04814426 0.0014812852 -0.13316537 0.3059722 0.02916437 -0.09146496 0.11310437

enc1.0.proj.pointwise.weight f4 [16, 16, 1, 1]
00000000: f3a5 a73e 5acb 273e a7d5 743e 3c82 ad3d
00000010: 5ab0 a5be 163b b2be ac09 5dbf 69e6 463e
00000020: 2cab 003e 189e d33e e441 073e 1cfc 1ebe
00000030: f228 a63d b65c 3d3e a423 95be ee64 2ebe
00000040: 800a debd 787e 4ebd 8f30 213d 2e6b 8d3d
00000050: 0b85 b7bd b73a a53e 5fe8 ae3d e730 88be
00000060: cd14 92bc 62c1 203d 311f 16bd 2082 383e
00000070: 0960 6b3d 0f14 4d3e 2bbf 1abe acae 18bb
00000080: b4d7 b9be d99c c33d 5ae1 7cbe f371 223e
00000090: 580f dbbd 8ad7 7d3d 1109 8bbe f04e 60be
000000a0: 0c7f 11bd a158 10be 6147 95be fd00 b13e
000000b0: 97bb b5be cd87 e8be 8bea 5dbe 1e08 81bc
000000c0: 9610 0f3e 01de c93e 686d 113e 280e 913e
000000d0: 2c48 50be 2e5b 31be 0510 913e e031 54be
000000e0: 4f94 0dbd 0e01 b6bd f59e 4c3d 1ac3 1cbd
000000f0: afd4 193e b6d4 6d3d 3b01 bfbe d0b9 013d
00000100: 00ab 8a3d 49d0 4abe 9c73 61bc a819 5e3d
00000110: d50b 2f3b 1101 1cbd c57d a83d 0955 77bd
00000120: 767a 38bd 610c a7bb 19fe a4bb 2156 293d
00000130: e16d 81bd 0e5f 99bd 4552 62be 9be1 693c
00000140: 88ab f33d 556f b1bd e24e f03c 3084 773d
00000150: 1739 b73c 976d 4fbd 38b6 4b3d fa78 cbbc
00000160: 4a0c c8bc 1652 ad3b 0ed4 823b ab00 5a3d
00000170: 8d5d 6cbd 3c7d 47bd 22e0 4bbe 90d7 a8bb
00000180: 79c8 983e e888 30be ab63 393e b1fa 03bd
00000190: 4c9a 1cbd 22a1 57be b988 00bd aebf 5cbe
000001a0: 145d ecbc 4e99 5e3e 1f10 f4bc 1e72 16be
000001b0: 17dd d83d 241d 19be 69f5 5a3c 31f6 6c3d
000001c0: 463e 483e 3486 683e 64c8 fdbd c805 6e3e
000001d0: 65e4 9e3c 544a 86bd 928f 1abd ec7b 903d
000001e0: c23a 163d e8ac e53c 7ba5 e0bd 40dd a9bd
000001f0: b81c 64bd ae51 20bc 0b93 b3be 04d6 dabd
00000200: 29fe 063d 810c 253e b134 67be 6702 563e
00000210: 4054 5fbe 25cb 06bf e404 0c3e dea1 223f
00000220: 209e 11bd 455e 33bd 9d5a bfbd 99b5 c83d
00000230: 376d d2bc d283 6d3e 1d9e 8ebe 29ad 87bd
00000240: 4095 223e 9c82 41be 8182 40be 550d 253e
00000250: a657 153f 7d9e 36be 11a9 b2bd b7b3 92bd
00000260: e6ce 373e 7ca9 073e e433 47be 4159 b83d
00000270: ae80 a3bc 11a5 d13e 7624 0ebe b493 97be
00000280: 5d2c 16be 365f 48be ffb4 223e 8d41 8d3d
00000290: e958 32be 7171 7bbd 57bc 5bbd 68be 62be
000002a0: 105e a0bd 3dcc 6c3d 5f5f babc ce75 4c3d
000002b0: a620 98bd 3d9e 113d 7525 26be 5416 8b3d
000002c0: 6a64 283d d628 a7be 16ef 5e3d 897b 443d
000002d0: b095 8ebd 56f8 93be 2ad8 2b3e 8ec4 f5bc
000002e0: 4859 66bd b782 38bd d1b0 3ebd 8373 2d3e
000002f0: 85e8 43bc 77d0 093d 999a 203e 0060 893d
00000300: 5659 383e d676 243d f9fa 18bf 2d81 863e
00000310: 79eb 493d 6dc3 16be e596 253d d92a 063f
00000320: c51b 8fbd c270 0ebe 2830 27bf 8119 223f
00000330: 5cfa 0cbf 0936 713c 9141 82bd 9bae debd
00000340: 6243 ca3d 36ec e43c 4920 c33d 0787 c5be
00000350: 7c60 8f3e f9a4 33bd aa13 3b3e 83b6 283e
00000360: 5b51 40bd db21 54be 1028 68bd 8efe 3fbd
00000370: a2d7 0abe 1009 72be 3dbf 62be becd ccbd
00000380: f82a b8bd d23c 3ebe a356 123e c08f 06be
00000390: 1719 f53d f5b6 25be d39e 74be 9d34 48be
000003a0: c660 6b3d 7c88 0a3e e171 043e 26b4 c4be
000003b0: dc6e 1d3e e9b6 b6bd 55ad 5fbc eb89 71bd
000003c0: 5f84 bd3e 626b 293e 22fa e93d 971f 55bd
000003d0: 97ed 223e b8ea 2ebe 05ed 23be e640 d3bd
000003e0: 63bc 13bd 79c0 1abd 4146 9fbe 1bc2 bd3d
000003f0: fb20 90be e959 3ebe 8f5a 6fbe d5c9 d4bd
0.32743797 0.16386166 0.23909627 0.08472106 -0.32361108 -0.34810704 -0.86342883 0.19423832
0.12565297 0.41331553 0.13208729 -0.1552586 0.081132784 0.18492398 -0.29128754 -0.17030689
-0.108418465 -0.05041358 0.03935295 0.069052085 -0.08960923 0.32271358 0.08540415 -0.2659981
-0.017832184 0.039246924 -0.03665084 0.18018389 0.057464633 0.20027183 -0.15111987 -0.0023297472
-0.3629738 0.09551401 -0.2469534 0.1586378 -0.10696286 0.061973132 -0.27155355 -0.21905112
-0.035521552 -0.14096309 -0.2915602 0.34571066 -0.35494682 -0.45416108 -0.21671502 -0.01575094
0.13971171 0.39427188 0.14201891 0.28331113 -0.20340031 -0.17319939 0.28332534 -0.20722151
-0.034565266 -0.0888692 0.04995628 -0.038272 0.15022539 0.058064185 -0.37305626 0.031671345
0.06770897 -0.19806017 -0.013760474 0.054223686 0.0026709933 -0.038086955 0.08227114 -0.06038383
-0.045038663 -0.005097911 -0.0050351736 0.041341905 -0.06319786 -0.07488833 -0.22101696 0.01427498
0.11897951 -0.08663813 0.02933449 0.0604288 0.02236609 -0.050641622 0.049734324 -0.02483796
-0.024419922 0.0052893264 0.003992564 0.053223293 -0.057706404 -0.048703417 -0.19909719 -0.00515265
0.29840448 -0.17239726 0.18104427 -0.0322215 -0.038233086 -0.21057561 -0.03138039 -0.21557495
-0.028852977 0.21738169 -0.029792843 -0.1469197 0.105890445 -0.14952523 0.013364174 0.057851974
0.19555005 0.22707444 -0.12391737 0.23244393 0.019396016 -0.06557146 -0.037734576 0.07054886
0.03667713 0.02803655 -0.10969063 -0.08294153 -0.05569145 -0.009785099 -0.35073122 -0.106853515
0.03295723 0.16118051 -0.22578694 0.20899354 -0.21809483 -0.52653724 0.1367374 0.6352824
-0.03555119 -0.043791074 -0.09343455 0.09800262 -0.025686843 0.23194817 -0.27855006 -0.066248246
0.15877247 -0.1889748 -0.18799783 0.16118367 0.58336866 -0.17833896 -0.08723653 -0.07163184
0.17950019 0.13248247 -0.19453388 0.09001399 -0.01995882 0.40946248 -0.13881096 -0.29604876
-0.14665361 -0.1956757 0.15889357 0.068972684 -0.17416729 -0.061387483 -0.05364641 -0.22142947
-0.07830441 0.057811964 -0.022750555 0.049917035 -0.07428102 0.0355513 -0.16225226 0.06791368
0.041111387 -0.32648343 0.05442723 0.047969375 -0.069621444 -0.28900403 0.16781679 -0.030000951
-0.05623749 -0.045046534 -0.046555344 0.16938595 -0.011957292 0.033646073 0.15683974 0.06707764
0.18002829 0.040152393 -0.59757954 0.26270428 0.04929683 -0.14722987 0.040427107 0.5240913
-0.069877185 -0.13910201 -0.65307856 0.63320166 -0.5506952 0.014722356 -0.06360162 -0.10873147
0.098761335 0.027944665 0.09527642 -0.3857958 0.280033 -0.043858502 0.1826922 0.16475873
-0.046952587 -0.2071604 -0.05667883 -0.04687362 -0.1355882 -0.2363627 -0.22143264 -0.1000018
-0.08992571 -0.18577889 0.14290862 -0.13140774 0.11967676 -0.16183074 -0.23888712 -0.1955132
0.057465337 0.13528627 0.12934066 -0.38418692 0.15374321 -0.08921606 -0.013652165 -0.05896942
0.37015054 0.1654487 0.11424662 -0.05203208 0.15910946 -0.17081726 -0.16008385 -0.10315113
-0.03606833 -0.037781212 -0.31108287 0.09265538 -0.28150162 -0.18588986 -0.23374389 -0.10390059

enc1.0.proj.pointwise.bias f4 [16]
00000000: 41a1 9a40 f2ec 29c0 df47 b1bf d568 263d
00000010: dddb 653f a044 c63f 16ec 1b3f e4a3 913f
00000020: df22 3940 1820 523f 7840 81bf 2659 8b3d
00000030: cf77 90be d0bb 23c0 ea07 fd3f 7619 fc3e
4.8321843 -2.655087 -1.3850058 0.04062732 0.8978861 1.5489693 0.60907114 1.137814
2.8927534 0.8208022 -1.0097799 0.06804113 -0.28216407 -2.5583382 1.976804 0.49238175

enc1.1.beta f4 [1, 16, 1, 1]
00000000: 4679 f83e 6f9d 5fbf af6d ae3e 798e 9c3e
00000010: 4c59 d63d 2c56 0a3e 994f 683f 50ae 87be
00000020: 8ffd 10bf 7360 9c3e e09f 983e 5c82 9f3e
00000030: ffd3 bfbe abc5 bbbe 6a6e 2abe d33a a03e
0.48530024 -0.873496 0.34068057 0.30577448 0.10466251 0.13509434 0.90746456 -0.26500177
-0.566369 0.30542335 0.29809475 0.31154144 -0.37466428 -0.36674246 -0.16643682 0.3129488

enc1.1.gamma f4 [1, 16, 1, 1]
00000000: e162 a3bf d943 01c0 d9ac 52bf 860e 5bbf
00000010: b574 1e3f d201 0fbf e397 08c0 7444 7ebf
00000020: 0af6 74bf e621 81bf fdbe 703f 4ce7 6a3f
00000030: b709 7fbf 4494 a2bf 59b0 95bf a95d adbf
-1.276455 -2.019766 -0.82294995 -0.85569036 0.6189683 -0.5586215 -2.1342704 -0.993232
-0.95687926 -1.008847 0.94041425 0.9175918 -0.996242 -1.2701497 -1.1694442 -1.3544208

enc1.1.conv1.weight f4 [32, 16, 1, 1]
00000000: 3f0e 3abc b5b4 1cbe a582 333d 0351 bcbe
00000010: ecff c23e 0204 1c3f 4471 b5be 14aa c83e
00000020: a7d0 4abc 8eda 263e b5d3 8b3e 9d6d 24bf
00000030: ce4e 23be 16e7 403e 48a6 8b3e 24f2 03bc
00000040: 5826 a9bd 1037 223e d0df ab3d f010 cebd
00000050: 3395 d93f 8559 943f 9f1b 08bf dfad 2c3d
00000060: 9c6f 8c3e 5f28 86bd 6c34 913e fddf 2cbf
00000070: 56d2 08bf e33f 083e 3514 bfbd 10cc 23bf
00000080: 536c 973f ab38 253f f73c 39c0 9157 6f3f
00000090: 3fac 4a3c e9ad 963f a367 413f a013 18bf
000000a0: eb04 94bf c3c4 5b3e 1197 85bf 7415 cc3e
000000b0: 8462 263d 6600 edbf e8f2 d43f 2496 67bf
000000c0: aec1 e23d 2172 7c3d 24a0 593d 240c 9ebe
000000d0: 14d0 c93e 984a 343e 53bc a5bd 6feb 0cbf
000000e0: 945f 9dbb 7d83 b33e d4f7 cd3e 4255 bcbd
000000f0: a9aa 28bd 45a8 d43d 75bf e8be a0b1 91be
00000100: acf5 fdbe ea42 253f 7e44 2d3e a878 82be
00000110: 207b 8ebd 8b56 1e3e dcbd aabe e332 b03e
00000120: cf54 d83d 73a5 2dbe 7790 a2bc a5d4 0a3e
00000130: 6ae8 84bd dca9 e2be c761 b13e 1be8 373f
00000140: fe67 b83e ea3f 593e 1988 233f 7640 d03e
00000150: 7cf0 6e3e 1004 9bbe 7ab3 c0bf fc23 643e
00000160: ba9f dcbd 246e 78bf 0c0c 86bd 010f 74be
00000170: 714d 5a3e 881c f43e 2830 bebb 2771 743d
00000180: 7f16 403e 905c cebd 0548 10bf 7719 053f
00000190: e5ea 263e 637d 13bf 4f64 09be 4198 17bf
000001a0: 5590 f7bc 6386 47be 5cae c63d 4acb dfbe
000001b0: 939b 1a3f 9e26 5f3e 676c 803e 94ce e6be
000001c0: 57a4 23be e39c debe bf67 d63e 7646 25bf
000001d0: e847 893e 7bdd b2be 7984 643f a8f1 51be
000001e0: 0d08 20bf ea43 4ebe b8ef 2e3e e38b 893d
000001f0: a7f8 8bbd 504e 2cbe 0de7 33bf 1f5a de3e
00000200: 2e4f 1c3e 4129 90be f327 a8bd 6462 813e
00000210: 57c4 0c3e fa68 46bf 8528 1e3f 026e 17bf
00000220: 3eaa 743e 0c03 eebd 2cd9 ad3d 8c85 4cbf
00000230: 52c2 bbbd 4ed2 333f 8fdc 5ebe c82f 07bf
00000240: 9da9 5bbe 4e82 04be 8a55 27be f3d0 2abf
00000250: 61b7 11bd 03e7 693e 0c94 a03e 6d7e 09bf
00000260: 0fbe 483c cdbc 1b3f 4b3f 9c3d e312 733f
00000270: 2ea1 2ebd 2c0e d43c c229 3e3e 46cf b8be
00000280: c25f 4f3d 6cb1 ccbe 9b1c 92bd a2c8 ac3d
00000290: 8de2 a2be 0f36 393f 65a9 d6be dad1 173e
000002a0: b151 6a3f 205f cf3d 91d0 e63e 89f0 0a3f
000002b0: 94a4 afbe 2373 ba3e f070 10bf 19c8 75be
000002c0: 4798 363e ba25 debe 2b11 ed3d e277 7dbf
000002d0: e337 0340 9ea6 f63e da2c 6abe 2d86 2a3c
000002e0: 0bb4 133e b7f7 3e3e e9f5 143e bfbd 54be
000002f0: 8648 72be 7164 853b 9b3e a9be 6d14 f9bd
00000300: 1be6 a23d 50e4 7fbe 1551 91be dd76 d93d
00000310: bb8e 69be e210 133f 619f efbd 1036 0f3f
00000320: 002d 52bd 786c 253e f4f4 59bf 40ad 0f3f
00000330: c171 6bbc ecb9 06bf ec81 b3bd ed2f f43e
00000340: 6473 c73e 449c b5bd b4dc 48bd 415f a73e
00000350: 9db5 a73e d51c bd3e cc4c 61be 7f67 ff3e
00000360: c7e1 c7bd a0be 8cbe 335b ec3d 8bb1 f8bd
00000370: 68c9 03bf 9891 37be 4fb8 c7bd d3b5 e03e
00000380: 9e7f 083f e441 0b3d 2ff2 3cbe 2d21 6cbe
00000390: ce2e 39bf 9feb d33e 2892 e7bd b21b c93d
000003a0: 8620 dc3d 5836 05be e6e2 96be 36de 323e
000003b0: 2c61 22bf 6b21 2a3e b0d1 8a3e fb41 0d3d
000003c0: 39e6 ffbe 128d 29bf 343b 6d3e 0729 13be
000003d0: 99be 203d b0a8 793e fbf9 11bd f1ce 573f
000003e0: c33d c7be 7e3c b8bc 6eef 3ebf 77e6 003e
000003f0: c2cd cc3d b5e8 2c3e 8113 203f 65e2 843d
-0.011355936 -0.1530331 0.043825764 -0.36780557 0.38085878 0.60943615 -0.35437977 0.3919226
-0.012378848 0.1629431 0.27309957 -0.64229757 -0.1594803 0.18838152 0.272753 -0.008053336
-0.082592666 0.15841317 0.08392298 -0.10061824 1.6998657 1.1589819 -0.53167146 0.042158004
0.274289 -0.06550669 0.28360307 -0.6752928 -0.5344595 0.13305621 -0.09330026 -0.6398325
1.1829933 0.64539593 -2.894346 0.9349299 0.012370168 1.1771823 0.7554876 -0.59404945
-1.1564001 0.21461777 -1.0436727 0.39860117 0.040621296 -1.8515747 1.6636629 -0.9046347
0.11072098 0.06163228 0.053131238 -0.30868638 0.39416564 0.1760658 -0.080925606 -0.55046743
-0.0048026536 0.35061255 0.4022814 -0.09195949 -0.04117838 0.10383657 -0.4545857 -0.2845583
-0.49601495 0.6455523 0.16920659 -0.25482678 -0.06957078 0.15462701 -0.33347976 0.34413823
0.10563051 -0.16957645 -0.019844277 0.1355768 -0.06489642 -0.44270217 0.3464491 0.7183854
0.3601684 0.21215788 0.63879544 0.4067418 0.23333925 -0.30276537 -1.5054772 0.22279352
-0.10772653 -0.9704306 -0.065452665 -0.23833849 0.21318604 0.47678018 -0.0058040805 0.059678223
0.18758582 -0.10076249 -0.56359893 0.5199198 0.16300543 -0.576132 -0.13417171 -0.59216696
-0.03022019 -0.19484858 0.09701225 -0.43709785 0.6039364 0.21792075 0.25082704 -0.45079482
-0.1598066 -0.4347907 0.41876027 -0.6456064 0.26812673 -0.349346 0.8926464 -0.20502341
-0.62512285 -0.20143095 0.17083633 0.067161344 -0.06834536 -0.16826749 -0.7027443 0.43428132
0.1526458 -0.28156474 -0.08210745 0.2527038 0.13746773 -0.7750393 0.6178058 -0.59152234
0.23893067 -0.11621675 0.08488688 -0.79891276 -0.09167923 0.70242774 -0.21763824 -0.52807283
-0.21451421 -0.12940332 -0.16341224 -0.6672508 -0.035575274 0.2284203 0.3136295 -0.53708535
0.012252345 0.6083496 0.0762926 0.94950694 -0.04263418 0.025885664 0.18570617 -0.36095637
0.05062843 -0.39979112 -0.07134362 0.08436705 -0.3181347 0.7234811 -0.41926113 0.14826146
0.915309 0.101255655 0.45081 0.5427328 -0.3430525 0.36415967 -0.5642233 -0.24002112
0.17831527 -0.43388158 0.1157554 -0.9901105 2.050286 0.48173994 -0.22868672 0.010407967
0.1442415 0.18649183 0.14546932 -0.20775507 -0.23660478 0.0040708114 -0.33055577 -0.12162099
0.079540454 -0.24989438 -0.28382173 0.106183745 -0.22808354 0.57447636 -0.11700321 0.5594187
-0.051312447 0.16154659 -0.85139394 0.56123734 -0.014370383 -0.52627444 -0.08765015 0.47692814
0.38955224 -0.08867696 -0.049038604 0.3268986 0.32755747 0.3693606 -0.22001952 0.4988365
-0.097598605 -0.27489185 0.11540832 -0.12143239 -0.51479197 -0.17926633 -0.09751951 0.4388872
0.5331973 0.033998385 -0.1845176 -0.2305953 -0.72337043 0.41390702 -0.11307174 0.098197356
0.10748391 -0.13009012 -0.29469985 0.17467579 -0.6342952 0.1661431 0.27113104 0.034486752
-0.49980333 -0.6623088 0.23167115 -0.1437112 0.039244268 0.24380755 -0.03563879 0.8430014
-0.38914308 -0.022489782 -0.7458409 0.12587915 0.10000183 0.16885646 0.6252976 0.06488494

enc1.1.conv1.bias f4 [32]
00000000: d205 e1be f455 223e cd92 2fbe 18fe 373f
00000010: 2273 eebe dd16 d43e c137 5ebe 1187 363e
00000020: cd24 1bbe f512 a9be 6015 7d3e 8a60 5d3e
00000030: 85b2 2bbf 0a0f e03e 2d8d 34bf 7c1c 3ebf
00000040: 4d7a 02bf 2352 803d 2887 59bf bbaa 21be
00000050: a2f9 763e 8192 01bf 2775 a03e a8af 0ebf
00000060: f95e cbbd 8576 f6be bf43 94bd 82cc 573d
00000070: c725 05bf 2416 42be 943e d83d 3e00 a3be
-0.43949753 0.15853101 -0.17145844 0.7187209 -0.46572214 0.41423693 -0.21700956 0.17824961
-0.15150757 -0.33022276 0.24715185 0.21618858 -0.67069274 0.43761474 -0.7052792 -0.74262214
-0.50967866 0.06265666 -0.8497186 -0.15787785 0.24118665 -0.5061417 0.3133938 -0.5573678
-0.09930224 -0.48137298 -0.07239484 0.05268527 -0.5201077 -0.18953758 0.10558811 -0.31836122

enc1.1.conv2.weight f4 [32, 1, 3, 3]
00000000: 56f1 c1be 3cd2 debe 2f6e 5abe 1271 4abc
00000010: 5c20 b3be 21f0 34be 863a 9e3d d455 9fbc
00000020: 030a 0bbe fc8e d6bd 5caa dabd 01e5 a5be
00000030: 6deb f7bd 4324 69bf d508 7f3e 5fd0 fdbe
00000040: 81ac 013b 6483 e93d 8d8d b63e ab6e 55bf
00000050: 61d0 583f 295d 84bf f9d4 9f3f eb43 79bf
00000060: b658 353f e500 49bf ee9e a43e 7a49 42be
00000070: 94f4 d03e cdc7 ae3c 940c fc3e 5ef3 a03e
00000080: 59ea 90bd 16d5 ae3d ab0d 0dbd 79d1 193d
00000090: fe4e 94bb e789 83be b1a1 93bb 34c1 b8be
000000a0: 3344 22bf b969 55be bb6b 41be 6f1c 31be
000000b0: 1261 57be 3a48 a8bc 2d23 a9be 22e5 803e
000000c0: 8735 4c3f beb9 a83e c22f 2a3e 15e2 0f3f
000000d0: 12df cbbd 3143 d03e 48a7 07be 05cc 1fbf
000000e0: 9896 63be 7fef c1bd 08e4 4a3f 3eef 793b
000000f0: 348d 8abd 59e4 cd3e 24f4 c8bd 8978 d83d
00000100: 8443 28be 8f44 203e 51c6 4abc fb41 b83f
00000110: 9c32 01bf 1210 10bc a007 883e cdc7 53be
00000120: 8126 b83e d773 153b c175 753e ad9a d73c
00000130: 3625 573f 1062 ad3d d8e7 4f3e 2a68 0abd
00000140: d9b1 7f3e b59e b73b 95ff 88bf d86c 683d
00000150: cae1 f1be ba5b 2e3d 24b8 96be c02d 8fbb
00000160: d926 85bf 548c 3bbe 2c68 523d b74c 863e
00000170: b84e 493c a2ec ecbe ef84 8ebf e250 32bf
00000180: c79d c53e 883a 533f afb5 203f 8860 3fbe
00000190: a9ad afbe 3a2b 39be c184 1b3e 4c9a f9bd
000001a0: 42d9 b9be 03f2 dabe 3c65 7cbf 8893 bebe
000001b0: 41fa 31be e8ea 7f3c 7165 c5bd d2ee 053e
000001c0: bb35 62bf 87c0 6f3e 826b b8bd ced2 713e
000001d0: 434a babd 14c1 2cbd 7557 bf3d bad6 6e3e
000001e0: 6f0c 333d 80a3 633e c7e8 da3d b840 8f3e
000001f0: cc5f 873e 061c 0b3e 851b 4dbe c095 8e39
00000200: 7aed 7abe 582c 21be ef24 0c3f b1f7 e6bc
00000210: 456d 40bf b62c 183e 160e 25bd ed58 d7bd
00000220: c8a6 db3e 79a2 74be 8d6c 81be 0c0d 5c3f
00000230: ad1e fbbe 7e68 723d aebd 30be 766e 8dbe
00000240: 1d2a d2be 597f b5be 0b8a debd e6e8 80be
00000250: 2173 a1be b9ad d3bd 11c2 8b3c f41b f6be
00000260: 9f71 bf3e e651 7a3b 256f 123d 1b60 0abf
00000270: f4c6 db3d f908 b8bb dd15 bdbd 43fb 17be
00000280: 321b bbbe d4bc c5be e8d8 64bd eca3 6e3d
00000290: 4896 cabc 7937 d9bb 03ea 74bf 48c6 13be
000002a0: 19fd 0cba 5072 8cbd 541e 0c3d 7f02 c83d
000002b0: f781 213f be72 04bf cb28 8a3e 08bc 043f
000002c0: 1dd9 07be a6d7 8abe 265b 993d d142 c2be
000002d0: ffb8 babd fcd0 ab3e 03b2 18bd 07d8 eb3e
000002e0: 4880 143d e1e6 613e ad76 683e 25b8 f13e
000002f0: db76 8ebd 18e1 64bf d043 f0be 4cb2 03be
00000300: 74a8 82bf 4254 643f 448a 79be 18a5 d4be
00000310: d7a9 323f b088 80be affa 58be b43d 68bf
00000320: c782 bdbd 319e 783e a070 5bbf d258 c6be
00000330: 5caa c73c 7a18 44be 3bf4 dabd 10cd 943e
00000340: dbe1 b1bd 6c0b 4f3e 6c32 a0be d8cb cdbe
00000350: d157 a8be 1058 a93d 63f6 65be 4def ecbd
00000360: db1e 60be 26fb 713e 4e6f 3b3d 0f92 c6bd
00000370: 53b8 703d 3a19 38bd 8332 c63e b723 9ebf
00000380: 6be2 09be cfcc 0a3e 73c7 923f 9753 503e
00000390: 0e9f ebbd 2ba9 a7bf 528a 1bbe 1e0f 93bd
000003a0: 4176 00be 21b0 2fbd 34eb e4bd 1824 5dbd
000003b0: a157 c2be f57a 9cbe 091e fb3e 34c8 d7be
000003c0: d286 583d 28c8 a7be 60eb 13bf 435c 073f
000003d0: a4a3 c13e 2897 f4be 1bae e63d 9f0e 45c0
000003e0: 8a56 c83e 95ed cbbe b11e 4c3e ef18 d43e
000003f0: 1c95 05bf b3be 1dbf c612 b23e 6566 07bf
-0.37879437 -0.4351977 -0.21331094 -0.01235606 -0.34985626 -0.17669727 0.07726006 -0.019450106
-0.13578038 -0.10476491 -0.10677025 -0.3240128 -0.12105451 -0.91070956 0.24905713 -0.49573037
0.0019786658 0.11402014 0.3565487 -0.8337199 0.8469296 -1.034093 1.2486869 -0.9736926
0.7083849 -0.7851699 0.32152504 -0.18973342 0.40811598 0.021335507 0.49228346 0.31435674
-0.07075948 0.08536737 -0.034436863 0.037553284 -0.004526018 -0.2569115 -0.004505359 -0.36084902
-0.63385314 -0.20841111 -0.18888752 -0.17296003 -0.21033123 -0.020542253 -0.3303465 0.25174814
0.79769176 0.3295421 0.1661978 0.5620435 -0.09954657 0.40676263 -0.13247406 -0.62420684
-0.22225416 -0.094695084 0.792542 0.0038136984 -0.067652136 0.40213278 -0.09812191 0.10569865
-0.16432005 0.15651153 -0.012376384 1.4395136 -0.5046785 -0.008792894 0.26568317 -0.20681687
0.35966876 0.0022804642 0.23970701 0.026318872 0.84041154 0.084659696 0.20303285 -0.033790745
0.24970187 0.005603636 -1.0702997 0.056744426 -0.47242576 0.042567946 -0.29437363 -0.0043694675
-1.040248 -0.1831525 0.051368877 0.26230404 0.012286834 -0.46274287 -1.1134318 -0.6965467
0.38596937 0.82511187 0.6277723 -0.18689167 -0.3431218 -0.18082896 0.1518736 -0.12187633
-0.36298567 -0.42762765 -0.9859197 -0.37221932 -0.1738062 0.015619971 -0.09638489 0.13079384
-0.88363236 0.23413287 -0.090048805 0.23615572 -0.090961955 -0.04217632 0.09342853 0.23324099
0.04371303 0.22230339 0.1068893 0.27979064 0.26440275 0.13584909 -0.20030029 0.00027195923
-0.24504653 -0.15739572 0.54743856 -0.02819428 -0.7516673 0.14860806 -0.040296637 -0.10515008
0.42900681 -0.23890103 -0.2527813 0.8595741 -0.4904684 0.059181683 -0.17259857 -0.27623338
-0.41047755 -0.3544872 -0.10866173 -0.25177687 -0.3153315 -0.10335869 0.017060312 -0.48068202
0.37391374 0.0038195788 0.035750527 -0.54052895 0.10731307 -0.005616304 -0.09232686 -0.14841942
-0.36544186 -0.38620627 -0.05587092 0.058261797 -0.024729863 -0.0066289273 -0.95669574 -0.14431107
-0.00053782907 -0.06857741 0.03420861 0.09766101 0.63088936 -0.5173758 0.26984248 0.5184941
-0.13266416 -0.27117652 0.07488088 -0.37941602 -0.091173165 0.3355788 -0.03727914 0.46063253
0.03625515 0.2206073 0.22701521 0.47210804 -0.06956264 -0.89405966 -0.46926737 -0.12860984
-1.0207658 0.8919107 -0.2436915 -0.41532207 0.69790405 -0.25104284 -0.21189378 -0.9071915
-0.092534594 0.24279095 -0.8571873 -0.3873964 0.024373226 -0.19149962 -0.106911145 0.290627
-0.08685657 0.20219201 -0.3128847 -0.40194583 -0.328795 0.0826875 -0.2245727 -0.115690805
-0.2188677 0.23630962 0.045760445 -0.09695827 0.058769535 -0.044945933 0.38710412 -1.2354649
-0.13465278 0.13554691 1.1467117 0.20344387 -0.11504947 -1.3098501 -0.15189484 -0.07180618
-0.1254511 -0.04289258 -0.11177674 -0.0539895 -0.3795748 -0.3056256 0.49046353 -0.4214493
0.05286295 -0.32769895 -0.5778103 0.52875155 0.3782016 -0.47771573 0.11263677 -3.0790174
0.39128524 -0.39829698 0.19933583 0.41425273 -0.5218065 -0.6161911 0.34779948 -0.52890617

enc1.1.conv2.bias f4 [32]
00000000: 5895 e73e 63f3 ca3e cb72 c7be e19f bb3f
00000010: fc97 2a3f 813d 1f3f 2c6a 173f 130a 003f
00000020: 6745 ffbe c73b 603f e8cb bcbd 29d9 0cbc
00000030: 85de 033f 4546 093f e92c 623f a1df 6e3f
00000040: 775d 5a3f 9263 4d3f 6c0a 4c3f 9356 ac3e
00000050: cfd2 233f d154 9dbe dc93 0ebe 961c 4b3f
00000060: e6e0 983e aac5 1dbd 3b7e 173f 0f0d 26bf
00000070: 9416 203e 5491 1abf d787 54bf 8213 123f
0.45231128 0.39638814 -0.38954768 1.4658166 0.6663816 0.6220322 0.5914638 0.5001537
-0.49857637 0.87591213 -0.092185795 -0.008596697 0.5151141 0.5362285 0.8834978 0.9330998
0.85298866 0.8023006 0.797034 0.336598 0.63993543 -0.30728772 -0.13923591 0.79340494
0.29859084 -0.038518585 0.5917699 -0.64863676 0.15633613 -0.60378003 -0.83019775 0.57061017

enc1.1.conv3.weight f4 [16, 32, 1, 1]
00000000: 0ae1 c63d e2f2 873d 0cf4 53bc 6b56 533e
00000010: 1902 1cbf 3b3a 1ebe bebf f63a 41f9 adbb
00000020: becb 313e 9cf1 153e 724f b4be 41d4 cbbd
00000030: 42d0 803f ee87 c33e 1a38 24bf 71d6 b93f
00000040: 4a57 85be 4a17 a2be b0a9 b7be 2bea 183f
00000050: 4b2d abbc c40f 1abd 4e74 393e d4a4 063f
00000060: 9ba1 1b3f e6b0 8b3e 7c63 17bf f221 f2bd
00000070: 5c30 083e 898c 23be 1c5e debc 3d5b 253f
00000080: 3da8 dcbe 9222 203d d5d3 833d a9df 12bf
00000090: 18e6 89bf d9da 253e 0f36 523e 5f2f b93e
000000a0: e519 93bf 71c3 463f 0a58 5abd f512 a13e
000000b0: 767d 11bf 399e 61bf b6b9 0dbe e5df 093e
000000c0: d647 a93e bff6 f2be 02c3 0abf 5227 e0be
000000d0: 6807 af3d 9863 203d 8b0f 813e 3d26 553f
000000e0: 8709 31bf 0ea3 0a3d e696 88bd f450 013e
000000f0: da70 c93d 3fcf 1a3d d9a8 273f 8c58 01bf
00000100: 0c0e 863d 0cc2 76bd ccac 04be d191 9c3e
00000110: e432 b7be abba 8abe 1226 d6be d734 88bf
00000120: cc45 6bbe 8931 e63e 194e 093e 9cae 903d
00000130: 5baf 3ebf 5a91 543e ca7a 633e 9242 8abe
00000140: 1d21 67be 3711 09bf dce2 bcbc 60fe 323e
00000150: e3f5 013f 0232 50be e06a 21be bb6c e73d
00000160: 84a2 073f b616 09be 155b 94be 77b9 8e3e
00000170: 1300 3b3e 5fd4 a43d 4539 113f c72b 1e3f
00000180: ca0d f43d c41d 533e cb24 833d ea75 fd3d
00000190: ed64 6dbe 6cde 30bf d64a 30be 308a d43e
000001a0: 1726 093e 43e8 a73d 74d9 27be e911 583d
000001b0: 80ca 4e3f c982 aeba 98d7 0dbf f4d0 97be
000001c0: 223e 04bf 32fe 38bf 36dc 5ebe 0002 3e3d
000001d0: a945 f13e f7d4 13be 6408 00bf 13a9 193d
000001e0: b8ca 5a3e 68fe 8dbd 15fa 7cbe 7368 bd3d
000001f0: ff83 903d 5135 cdbd 4332 40be 2bb8 bfbd
00000200: 415a 553e e019 abbc a1a3 f5bc 829d 443e
00000210: b05e 91bd ff65 efbd c72b 2abf a84e 29bf
00000220: 5be2 1d3d a552 abbb 9dc8 e9bc 67d3 13be
00000230: 2415 c3bf cd04 41be 755c adbe f481 943e
00000240: 88ee 50bf aefb 60be 082d 29be aaa4 083d
00000250: 3faa 553e 2ef9 3f3c 21ed d5be 651e 273e
00000260: 12c4 abbe 77ba 9abd 8239 9c3e c331 143e
00000270: f97b e0bd bdb8 36bd 21ac d13d c0be e03d
00000280: 3f46 8e3d fe61 70bc af97 cdbb d911 323e
00000290: f2a6 363d 156f 82bd bf26 28bf 7bc1 b4be
000002a0: 541f 1c3d 3e75 343d b99e af3c f0d8 80be
000002b0: a5e1 91bf ae83 9dbe b1c1 c9be ef7a 133f
000002c0: 183a e0bd 40d1 b6bd 7ff3 dcbe 4c11 b93d
000002d0: 5cea 2dbe f85a efbc 85a7 69be aa81 d73e
000002e0: dfd0 e1bd f8d3 c73e 4493 a23e 9553 50bc
000002f0: 06d0 bcbd 38a5 2c3d 7d55 443e 18cb f9bb
00000300: ab7d 16bf 0d26 413f 5bab 923d 03e4 963f
00000310: 8856 fabe f65f 95bd d5a8 03bf 81de 803f
00000320: 7414 823f ab33 933e ea89 78be 299d 303f
00000330: a0d1 e23e 0896 ed3e 88cb 02bf 29ac da3e
00000340: a196 46bf 912f 0fbe 296c 523e 88e2 903e
00000350: 7811 033f d7d3 2cbf e13a 553d aece d73e
00000360: f790 dabe efd6 b93e 5aa4 0dbf 2369 85be
00000370: 8b2b a53e ffa2 cd3d 2450 36bd 1641 bbbe
00000380: ef53 ca3e f6de d2bd 532a ccbc aa1c 2f3e
00000390: bb6f 723e 729a d63d 451d 84bd af3f c5be
000003a0: 5c3b efbd 2f55 9cbe 2863 403e 8262 44bc
000003b0: 2dfd cbbf cb26 2f3e efa7 b5bd 18f8 b8be
000003c0: f72c 013f 3b6c 0a3f 2eec ad3d 59ec b3be
000003d0: f6ca d3be 0173 03bd e0ee 70be 8052 e0bc
000003e0: bb0e 3fbf e85f d63c 5fde 553f 6e10 843d
000003f0: 4df4 45be 82c9 843d 672b 1f3e 073b 60be
0.097108915 0.06638123 -0.012936603 0.20638435 -0.609407 -0.154519 0.0018825454 -0.0053092544
0.17362878 0.14642948 -0.35216862 -0.099525936 1.0063555 0.38189644 -0.64148104 1.4518567
-0.2604316 -0.31658393 -0.3587165 0.5973231 -0.02089562 -0.03761269 0.18110773 0.5259526
0.60793465 0.272834 -0.59136176 -0.11822881 0.13299698 -0.15971579 -0.027144484 0.64592344
-0.43097106 0.03909547 0.06436888 -0.5737253 -1.0773344 0.16196765 0.20528434 0.36168954
-1.1492277 0.7764197 -0.053306617 0.31459776 -0.56832063 -0.88132054 -0.13840374 0.13464315
0.3306262 -0.47453877 -0.5420381 -0.4378 0.085463345 0.03915748 0.2520717 0.8326147
-0.6915516 0.033846907 -0.066694066 0.12628537 0.09835978 0.0377953 0.65492016 -0.50525737
0.06545648 -0.06024365 -0.12956542 0.3058 -0.35781014 -0.2709554 -0.4182592 -1.0641125
-0.22975844 0.44959667 0.13408698 0.07064554 -0.7448632 0.20758572 0.22214809 -0.27003914
-0.22571225 -0.5354189 -0.023057394 0.17479849 0.5076582 -0.20331576 -0.15763426 0.113000356
0.52982354 -0.1338757 -0.2897574 0.27875873 0.18261747 0.08048319 0.5672801 0.6178555
0.119166926 0.20616823 0.06403502 0.12376006 -0.23183031 -0.6908939 -0.17216048 0.4151168
0.13393436 0.08198597 -0.16391546 0.052751455 0.8077774 -0.0013314123 -0.55407095 -0.29651606
-0.5165731 -0.7226287 -0.21763691 0.046388626 0.4712346 -0.14436708 -0.50012803 0.037514757
0.21366394 -0.0693329 -0.24704774 0.09248438 0.07056426 -0.10019935 -0.18769173 -0.09361299
0.2083521 -0.020886362 -0.02998525 0.1920071 -0.07098138 -0.11689376 -0.6647305 -0.66135645
0.038545948 -0.005228358 -0.028538043 -0.14436112 -1.5240827 -0.18849488 -0.33859602 0.29005396
-0.8161397 -0.21971008 -0.16521084 0.03336016 0.20865725 0.011717124 -0.41782477 0.16320188
-0.33548027 -0.075550966 0.30512625 0.14472108 -0.10961146 -0.044609774 0.10237909 0.10973883
0.06946992 -0.014671801 -0.0062741856 0.17389621 0.044592805 -0.063688435 -0.6568412 -0.35303864
0.038115814 0.044057123 0.02143799 -0.2516551 -1.1396986 -0.30764526 -0.39405587 0.57609457
-0.109485805 -0.0892663 -0.43154523 0.09036502 -0.16983932 -0.029218182 -0.2281781 0.42091113
-0.11026167 0.39028907 0.3175298 -0.01271524 -0.09219365 0.042149752 0.19173236 -0.0076230876
-0.58785504 0.75448686 0.0716159 1.1788334 -0.48894143 -0.07293694 -0.5142949 1.0067903
1.0162492 0.28750357 -0.2427136 0.6898981 0.44300556 0.46403527 -0.51091814 0.42709473
-0.7757359 -0.13982989 0.20549072 0.2829783 0.5119853 -0.6751074 0.052058104 0.42149872
-0.42688724 0.36296794 -0.55328906 -0.26056775 0.32259783 0.10040855 -0.04451002 -0.36573094
0.3951716 -0.10296433 -0.024922526 0.17100778 0.23675434 0.10478677 -0.06450895 -0.3852515
-0.11681244 -0.3053374 0.18787825 -0.011986377 -1.5936638 0.17104642 -0.088699214 -0.3612678
0.50459236 0.54071397 0.08492313 -0.35141256 -0.41365784 -0.0320921 -0.23528624 -0.027383089
-0.7463185 0.026168779 0.83542436 0.06448446 -0.19331475 0.06483747 0.155439 -0.21897517

enc1.1.conv3.bias f4 [16]
00000000: f19e f9bf f666 00c0 9409 7c3e a448 83be
00000010: 3b27 efbf 2530 95bf 080b 48bd ca04 933f
00000020: d895 93bf a30e 30bf 9d75 8cbf 6875 bfbe
00000030: 1479 88bd c727 713f aafa 4f3e 014e 233f
-1.950163 -2.0062842 0.24613029 -0.25641358 -1.8683847 -1.1655318 -0.048838645 1.1485837
-1.1530104 -0.68772334 -1.0973393 -0.3739426 -0.06663719 0.9420132 0.20310465 0.637909
